logs/tensorboard_logs/MNIST/version_4/checkpoints/epoch=0-step=469.ckpt (torch, 544200 bytes, 30 tensors)

conv1.weight f4 [6, 1, 5, 5]
0	0x3d86e0cb	0.065858446
1	0xbd0546cd	-0.032538224
2	0xbb8b6e48	-0.00425509
3	0x3da3d004	0.0799866
4	0x3cca0749	0.024661677
5	0xbe175568	-0.14778674
6	0xbd840079	-0.06445403
7	0xbe1bed6b	-0.15227287
8	0x3e1d5398	0.1536392
9	0x3e337fb7	0.17529188
10	0xbdc28b21	-0.09499193
11	0xbe005949	-0.1253406
12	0xbdb39c3d	-0.087700345
13	0x3dde7af3	0.108632945
14	0xbda2f965	-0.079577245
15	0xbc1c7338	-0.009548955
16	0xbe2af1cd	-0.16693802
17	0x3c7c0321	0.015381605
18	0x3e4c0eec	0.19927567
19	0x3db7e48c	0.08979139
20	0x3e44968b	0.19198053
21	0x3e07afd2	0.13250664
22	0x3d906bf2	0.07051839
23	0x3e0ef85b	0.13961928
24	0x3d4b9030	0.049698055
25	0xbd843455	-0.06455294
26	0xbdada9b8	-0.08479637
27	0xbe1a004b	-0.15039174
28	0xbdd18c03	-0.10231783
29	0xbd4393be	-0.04774832
30	0xbe16aecc	-0.14715117
31	0x3d102758	0.03519377
32	0x3d8ace0e	0.06777583
33	0x3e47139d	0.19441076
34	0xbd85a955	-0.06526438
35	0xbdff6849	-0.12471063
36	0x3dc6a087	0.09698587
37	0xbe17527e	-0.14777562
38	0x3dd31574	0.10306826
39	0x3dd4b12f	0.103853576
40	0x3d9b4bac	0.07582793
41	0xbce56a6c	-0.028004847
42	0x3c8e19f9	0.01734637
43	0xbe050f4b	-0.12994115
44	0xbd6f0776	-0.058356725
45	0x3cf15867	0.029461099
46	0x3c8c513b	0.017128577
47	0xbe16d0e6	-0.14728126
48	0xbe39fd2d	-0.18162985
49	0x3d82de13	0.063900135
50	0xbe4b42d9	-0.19849719
51	0x3cd038c4	0.025417693
52	0x3ac7550a	0.0015207839
53	0x3dc8dc41	0.09807635
54	0x3cfce847	0.030872477
55	0xbdfb0857	-0.1225745
56	0x3dd1afb0	0.10238588
57	0x3e491321	0.19636203
58	0xbe0797f8	-0.13241565
59	0x3c03dbe7	0.008048034
60	0x3e094a28	0.13407195
61	0xbd9661bd	-0.07342861
62	0xbc0b7be4	-0.008513425
63	0x3dce4a12	0.100727215
64	0x3e4a057b	0.19728653
65	0x3e161fba	0.1466054
66	0x3d0c8497	0.034306135
67	0x3e37a849	0.1793529
68	0x3c931ed4	0.017959036
69	0x3daa1b68	0.083060086
70	0x3b920acf	0.004456855
71	0xbe292ad8	-0.1652025
72	0x3e2b40aa	0.16723886
73	0x3d17295d	0.03690468
74	0x3e2880c1	0.16455366
75	0xbdba2ef6	-0.09090988
76	0xbc85bcac	-0.016325317
77	0xba3b94e5	-0.0007155671
78	0x3d0d099d	0.034432996
79	0xbe26c813	-0.1628726
80	0xbe33ba80	-0.17551613
81	0xbd79b636	-0.060964786
82	0x3c47f694	0.012204785
83	0x3db0581d	0.08610556
84	0x3e316daa	0.1732699
85	0xbd9bd3ee	-0.07608782
86	0x3c8c9ba6	0.017164063
87	0x3d49128b	0.04908995
88	0x3d394cc4	0.045239225
89	0xbdb4523d	-0.08804748
90	0x3da37fd4	0.07983366
91	0x3da3adaf	0.07992112
92	0xbe1ed507	-0.15510951
93	0xbbd638ae	-0.0065375185
94	0x3d0fda45	0.035120267
95	0xbe09d57a	-0.13460341
96	0x3cb9cccf	0.022680668
97	0xbd8f5242	-0.06998111
98	0x3d0f6125	0.035004754
99	0x3d4008d1	0.046883408
100	0x3daefc34	0.08544198
101	0xbcdcc9c5	-0.02695168
102	0xbe2b2bf9	-0.16715993
103	0x3ca15039	0.019691573
104	0xbded423b	-0.11584898
105	0x3d30f12c	0.04319875
106	0x3e0e6ca9	0.13908638
107	0xbd7e8d12	-0.062146254
108	0x3d55b2b7	0.05217239
109	0xbe1609e8	-0.14652216
110	0xbdcf9fc0	-0.10137892
111	0xbe042e54	-0.12908298
112	0x3dcb8071	0.09936608
113	0x3e2e377d	0.17013355
114	0xbe3d3d4b	-0.18480413
115	0xbe27223c	-0.16321653
116	0x3df64094	0.12024036
117	0xbc56e424	-0.013115916
118	0xbe01ddb3	-0.12682228
119	0x3e1f09ec	0.15531129
120	0xbe05b21f	-0.13056229
121	0x3cca2499	0.024675654
122	0xbda13fc9	-0.07873494
123	0xbdd88f78	-0.105742395
124	0xbd24fcf6	-0.040280305
125	0x3dffe46d	0.12494741
126	0x3abf66d7	0.0014602792
127	0xbe28a389	-0.16468634
128	0x3e006f3d	0.12542434
129	0x3e43ef19	0.19134177
130	0x3cff9193	0.031197345
131	0xbe012ca6	-0.12614688
132	0x3e13dd06	0.14439783
133	0xbe148c3e	-0.14506623
134	0x3e46e29a	0.19422379
135	0x3cf0c9a4	0.029393025
136	0xbdc2f295	-0.09518925
137	0x3e5a27c0	0.21304226
138	0xbe26ea78	-0.1630038
139	0xbcf52581	-0.02992511
140	0xbe05b7ad	-0.13058348
141	0xbe29878b	-0.16555612
142	0x3e0c4b2c	0.13700551
143	0xbda6f18d	-0.08151541
144	0x3d9f4804	0.07777408
145	0x3e2c8761	0.16848518
146	0xbe01147f	-0.12605475
147	0x3d02eaf9	0.03196237
148	0xbc3a61f8	-0.011375897
149	0x3d23a9b4	0.039956763

conv1.bias f4 [6]
0	0x3ce60725	0.028079579
1	0x3c5d855f	0.013520568
2	0x3e388b34	0.18021852
3	0xbe1b4f84	-0.15167052
4	0xbd13dd7a	-0.03609989
5	0xbd373ef4	-0.04473777

conv2.weight f4 [16, 6, 5, 5]
0	0x3d6b22a5	0.057406086
1	0xbd93a978	-0.07210058
2	0x3d1a9b07	0.0377455
3	0xbd1bbadc	-0.03802
4	0xbd087b85	-0.033320922
5	0x3d5b9fc3	0.053619158
6	0xbc7355f0	-0.014852032
7	0x3d335467	0.043781664
8	0x3dbf4252	0.093388215
9	0x3d8dab2f	0.06917416
10	0x3d8233cd	0.063575365
11	0x3d338c70	0.043835104
12	0xbcabf58c	-0.02099111
13	0x3d936b30	0.07198179
14	0xbd8ab890	-0.06773484
15	0xbdb041b8	-0.08606285
16	0xbc590eda	-0.01324817
17	0x3d6bb6c5	0.05754735
18	0x3c05da6c	0.008169752
19	0x3db53a01	0.08848954
20	0xbcb186e2	-0.021670762
21	0xbd35e781	-0.044410232
22	0xbd4371a1	-0.047715787
23	0xbcc50a00	-0.02405262
24	0x3daa6bce	0.08321343
25	0x3d011843	0.03151728
26	0xbd2c9657	-0.042135563
27	0x3d9149d6	0.07094161
28	0x3c95a816	0.018268626
29	0xbb8b6a55	-0.004254619
30	0xbd878424	-0.06617001
31	0x3c837f52	0.016051922
32	0x3d854a19	0.06508274
33	0xbd27aea3	-0.04093803
34	0x3d9ec5c0	0.077525616
35	0x3d5ebef2	0.05438132
36	0x3d3d8e46	0.04627826
37	0x3d049dca	0.032377042
38	0xbd968ca1	-0.073510416
39	0xbb51412b	-0.0031929712
40	0xbd3ce39e	-0.04611551
41	0xbd860957	-0.0654475
42	0x3c913528	0.017725542
43	0x3cd5a55b	0.026079824
44	0xbd042d91	-0.032270018
45	0x3d147821	0.036247376
46	0x3c2ddd77	0.010611883
47	0x3da6098a	0.08107288
48	0x3c62960d	0.01382972
49	0xbdabf741	-0.08396769
50	0x3d99f363	0.075171255
51	0x3d5f512f	0.054520782
52	0xbd1957c7	-0.037437227
53	0x3d984934	0.074358374
54	0x3d49966d	0.049215723
55	0xbd9d1225	-0.076694764
56	0xbcfe00ae	-0.031006183
57	0x3d8be60a	0.06830986
58	0x3ac865d8	0.0015289141
59	0xbc8a35bf	-0.016871331
60	0xbd92a788	-0.0716086
61	0x3d93639e	0.07196735
62	0x3d679eb0	0.05654782
63	0x3d9af5de	0.07566427
64	0x3d89881b	0.06715413
65	0xbd29e7ab	-0.0414807
66	0xbd95dfc5	-0.07318071
67	0xbbf4d084	-0.007471146
68	0xbd013000	-0.031539917
69	0xbbd4a2ef	-0.0064891498
70	0x3c8b103b	0.016975513
71	0x3d18acc0	0.037274122
72	0xbccb0bc9	-0.024785893
73	0x3dadbc3b	0.08483168
74	0x3d6cc7cb	0.057807725
75	0xbd048d66	-0.03236141
76	0xbc62b066	-0.013836002
77	0xbc69abc7	-0.014262146
78	0x3d8834b0	0.06650674
79	0x3d59941a	0.053119756
80	0xbdaf8bfc	-0.08571622
81	0xbd0c3154	-0.03422673
82	0x3d33673d	0.043799628
83	0x3d930ba7	0.07179957
84	0x3d933875	0.07188503
85	0x3c3a6e49	0.011378833
86	0x3d997a26	0.07494001
87	0x3d65cf7c	0.056106076
88	0x3d6ca73a	0.057776667
89	0x3d2f22b8	0.04275772
90	0xbcf70d08	-0.030157581
91	0xbd824efb	-0.063627206
92	0x3d5d39d2	0.05401022
93	0x3d991c82	0.074761406
94	0xbc55f288	-0.013058312
95	0x3d3b247c	0.04568909
96	0xbd9faf59	-0.07797117
97	0xbd9f958d	-0.077921964
98	0x3d8c1f84	0.06841949
99	0xbd4a7571	-0.049428407
100	0xbd376902	-0.044777878
101	0xbd744781	-0.059638504
102	0x3c694a66	0.014238929
103	0xbd53405e	-0.051575057
104	0xbd8f140c	-0.069862455
105	0xbd825d84	-0.06365493
106	0xbc2ca51f	-0.010537415
107	0xbd9dffbe	-0.077147946
108	0xbcc306d3	-0.023806965
109	0xbd80a6d2	-0.062818184
110	0xbd60aeec	-0.05485432
111	0xbdae3732	-0.085066214
112	0x3d40547d	0.046955574
113	0x3d9ac694	0.07557407
114	0xbd01855f	-0.031621333
115	0xbd1891e6	-0.037248515
116	0x3d8c4d08	0.0685063
117	0x3d5f7a58	0.054560035
118	0xbd39cfa9	-0.045364056
119	0x3d7bd222	0.061479695
120	0x3cdf0dfe	0.027228352
121	0xbdaba8b2	-0.083817855
122	0xbc4dda68	-0.012564279
123	0x3d35c94d	0.04438143
124	0xbd56e5fe	-0.05246543
125	0x3d0c3317	0.03422841
126	0xbd2eae9c	-0.04264699
127	0x3d23504a	0.03987149
128	0xbbe31816	-0.0069303615
129	0xbbfa12c9	-0.007631634
130	0xbc8e9c18	-0.017408416
131	0x3d2e054d	0.042485524
132	0x3d6e87d7	0.058235016
133	0x3da6b993	0.08140864
134	0xbd08c03d	-0.033386458
135	0x3d878f6d	0.06619153
136	0xbd940223	-0.0722697
137	0xbd8a20d2	-0.06744541
138	0x3d40f518	0.04710874
139	0x3dbccfd0	0.092193246
140	0x3d16c5f7	0.036809888
141	0x3cc83b7a	0.024442423
142	0x3c108de8	0.008822896
143	0xbc81ff2d	-0.015868748
144	0x3b12ea11	0.0022417346
145	0x3c1d17c1	0.009588183
146	0x3b1ebe68	0.0024222378
147	0xbcbf3333	-0.023339843
148	0xbc82015d	-0.01586979
149	0x3cd3cb81	0.025853874
150	0x3d5f501f	0.05451977
151	0x3c91a2db	0.01777785
152	0x3d8b8207	0.0681191
153	0x3d67f7d6	0.05663284
154	0xbcb5284b	-0.02211394
155	0xbc0534c2	-0.008130254
156	0x3d26030f	0.04053026
157	0x3b481dd0	0.0030535348
158	0xbcbc32e1	-0.02297348
159	0xbd3144da	-0.043278553
160	0xbd7d1c73	-0.06179471
161	0xbd728a6d	-0.059214044
162	0x39a45142	0.0003134106
163	0x3d06d7c0	0.0329206
164	0xbc8da5c9	-0.017290967
165	0x3d661e7e	0.056181423
166	0xbd473213	-0.04863174
167	0x3dbc1ed4	0.091855675
168	0x3d5447fe	0.05182647
169	0x3d8d6d5f	0.069056265
170	0xbcd82931	-0.02638683
171	0x3dade891	0.08491624
172	0xbd3bb452	-0.045826264
173	0xbd836f47	-0.06417709
174	0xbd9b8641	-0.07593966
175	0x3cc4db22	0.024030272
176	0x3d3e7cbf	0.046505686
177	0x3d98c154	0.074587494
178	0xbd873b5a	-0.06603117
179	0xbc40c9dc	-0.011766877
180	0x3d2f7ad0	0.042841733
181	0x3ced91a5	0.029000113
182	0x3c1f92b7	0.009739569
183	0x3b396564	0.0028289193
184	0xbc750a17	-0.014956019
185	0xbcf64fae	-0.030067291
186	0xbd984177	-0.074343614
187	0xbd9d5320	-0.076818705
188	0x3d010ba0	0.031505227
189	0xbda9c4c9	-0.08289487
190	0xbd84a576	-0.06476872
191	0x3d731db6	0.059354506
192	0x3cc4ad78	0.024008498
193	0xbbc4b44f	-0.00600294
194	0xbc88560a	-0.01664259
195	0xbc57ec57	-0.013178906
196	0x3d75e56c	0.060033247
197	0xbcdb9015	-0.026802102
198	0x3cac40f8	0.021027073
199	0x3c99bf7c	0.018768065
200	0x3d9b798e	0.07591544
201	0xbc8cbb78	-0.017179236
202	0x3d8e328b	0.06943234
203	0xbd1df74f	-0.03856593
204	0xbcd39e1c	-0.025832228
205	0xbcb94a8f	-0.02261856
206	0x3b368797	0.0027851814
207	0x3da9a22c	0.08282885
208	0x3da19210	0.07889187
209	0x3d38eca7	0.045147564
210	0x3d0eaed5	0.0348347
211	0x3cfd2526	0.030901503
212	0x3d8c01db	0.068362914
213	0xbd4ffd9e	-0.050778978
214	0x3d251ad0	0.040308774
215	0x3d330578	0.043706387
216	0x3cc130ba	0.023582805
217	0x3d9d2fdd	0.07675145
218	0xbcf8b7f8	-0.03036116
219	0xbd11a372	-0.035556264
220	0xbc9af92b	-0.01891764
221	0xbcc74a77	-0.0243275
222	0x3db0faea	0.08641608
223	0xbccfdca3	-0.025373762
224	0x3d6eb2f8	0.058276147
225	0x3d29eb33	0.04148407
226	0xbd842157	-0.064516716
227	0x3d2511b1	0.040300075
228	0x3dadf2ca	0.08493574
229	0x3d5c6e8f	0.053816374
230	0x3d3673d0	0.04454404
231	0xbd5836da	-0.052786686
232	0xbd58e461	-0.052952174
233	0x3d24d495	0.040241797
234	0x3d4e8070	0.050415456
235	0xbb9e3aa4	-0.004828768
236	0xbd232317	-0.039828386
237	0x3ccd4ca7	0.025060965
238	0x3da4947a	0.08036132
239	0xbd34605c	-0.044037208
240	0x3d55b2eb	0.052172583
241	0x3c348242	0.011017384
242	0xbcd1b6c9	-0.025599854
243	0xbc3dbeda	-0.011581147
244	0x39cee673	0.0003946308
245	0xbc2a0c7b	-0.010378952
246	0x3d90ebfa	0.07076259
247	0xbd658f7f	-0.05604505
248	0xbca6a58b	-0.020342609
249	0xbc2b8734	-0.010469247
250	0xbc91edd4	-0.0178136
251	0x3d2b48a9	0.04181734
252	0x3d002e1d	0.031293977
253	0xbd85c0f8	-0.065309465
254	0x3cb9a9ce	0.022663977
255	0xbd85562d	-0.06510577

conv2.bias f4 [16]
0	0x3d6abf34	0.05731125
1	0xbcdaf3fe	-0.026727673
2	0xbd73897a	-0.05945728
3	0x3d782b6e	0.060588293
4	0x3d151191	0.036393706
5	0x3d602933	0.05472679
6	0x3d17a454	0.03702195
7	0xbd315118	-0.043290228
8	0x3d2c5a8c	0.04207854
9	0xbb94e0c7	-0.004543397
10	0xbd764061	-0.06011999
11	0x3ca2acee	0.01985785
12	0x3d2c3a05	0.04204752
13	0xbd81aef8	-0.06332201
14	0xbc46bb42	-0.012129607
15	0x3db44c2d	0.08803592

fc1.weight f4 [120, 256]
0	0x3c628bd3	0.013827282
1	0x3d504908	0.050850898
2	0x3d000697	0.031256285
3	0x3d78bb72	0.060725637
4	0x3d7f73aa	0.062366165
5	0xbca21e15	-0.019789735
6	0xbc427998	-0.0118698105
7	0x3d42e78d	0.047584105
8	0x3c227460	0.009915441
9	0xbcf31450	-0.029672772
10	0x3ca716cc	0.020396613
11	0xbce5d3df	-0.02805513
12	0x3d36dc68	0.04464379
13	0x3d2cf2d3	0.042223763
14	0xbb591a6d	-0.0033127323
15	0xbd3930cf	-0.045212563
16	0x3d273f86	0.040832065
17	0xbd2bb88d	-0.04192405
18	0x3ccb6e8a	0.024832983
19	0xbc884cf3	-0.016638255
20	0x3c9a0093	0.018799102
21	0x3d846bf6	0.064659044
22	0xbcc71271	-0.024300786
23	0x3ce7e091	0.028305324
24	0x3d594407	0.05304339
25	0x3be17818	0.0068807714
26	0xbc9e3d49	-0.019316332
27	0x3d84747d	0.06467531
28	0xbc95946a	-0.018259246
29	0xbcf57230	-0.029961675
30	0x3d7de8e4	0.06198968
31	0xbd10ed98	-0.035382837
32	0x3d5416d5	0.051779587
33	0x3d0e577f	0.03475141
34	0xbc5f3f58	-0.013625942
35	0x3d65ff57	0.056151714
36	0x3d018dde	0.031629436
37	0xbd34944f	-0.04408675
38	0xbd4dbb17	-0.05022725
39	0x3ce8a678	0.028399691
40	0x3d298462	0.041386016
41	0x3ce1aab7	0.027547223
42	0x3ad54907	0.0016272374
43	0x3d32c32e	0.04364317
44	0xbd31fb7e	-0.043452732
45	0x3c007dbb	0.0078424765
46	0x3d420b9f	0.047374364
47	0x39c3f823	0.00037378175
48	0x3c15e4f5	0.009148826
49	0xbcbf2ae2	-0.023335878
50	0x3b5f4373	0.0034067302
51	0x3d47d31c	0.048785314
52	0xbc853d7d	-0.016264671
53	0x3d860a8f	0.06544983
54	0xbcaa1f97	-0.020767016
55	0xbd596c50	-0.05308181
56	0x3d26d80e	0.04073339
57	0xbccdd78e	-0.025127199
58	0xbc989a10	-0.01862815
59	0xbcc4fec4	-0.024047263
60	0x3c2b8bfc	0.010470387
61	0xbce5b5cd	-0.02804079
62	0x3d6e4d48	0.05817917
63	0x3d286736	0.041114055
64	0x3d1e4505	0.03864004
65	0x3cb525aa	0.022112686
66	0xbd346879	-0.044044945
67	0x3c10316a	0.008800844
68	0xbd2bc91d	-0.041939843
69	0x3d756f97	0.059920873
70	0xbcda449a	-0.02664404
71	0xbd703b46	-0.058650278
72	0x3c1dfa22	0.009642156
73	0x3d4be312	0.049777098
74	0xbd6ac0ab	-0.05731265
75	0x3d04d7c0	0.032432318
76	0xbd0cc353	-0.034365963
77	0x3d519512	0.051167555
78	0x3b0d1d2b	0.0021532278
79	0x3d78c995	0.06073912
80	0x3d3d8794	0.046271876
81	0x3d6b1698	0.057394594
82	0xbce44576	-0.027865153
83	0xbd0cf67e	-0.03441476
84	0xbd1cb8d8	-0.03826222
85	0xbbd5039f	-0.006500676
86	0xbd5e015d	-0.05420052
87	0x3cd5d43f	0.026102183
88	0xbc253ab2	-0.010084795
89	0xbc818f73	-0.015815472
90	0xbd344d64	-0.044019118
91	0xbcfa8387	-0.030580295
92	0x3c9bb9cf	0.019009499
93	0xbd203385	-0.039111633
94	0xbd406c70	-0.046978414
95	0x3d616cbc	0.055035338
96	0x3d563c85	0.05230381
97	0xbbe2acc5	-0.0069175684
98	0xbd714c8b	-0.058910888
99	0xbd3fb9c2	-0.04680801
100	0xbd261503	-0.040547382
101	0x3d81483d	0.063126065
102	0xbd290d92	-0.041272707
103	0x3c3cd8ac	0.011526268
104	0x3c9905e2	0.018679563
105	0x3d813aca	0.06310041
106	0xbd57c82d	-0.052681137
107	0xbd3e402a	-0.04644791
108	0xbd6075ec	-0.05479996
109	0xbd197f62	-0.037474997
110	0xbd5a3c37	-0.05328008
111	0xbd2550b3	-0.040360164
112	0x3d10dd62	0.035367377
113	0x3d465519	0.048421
114	0xbd430a85	-0.047617454
115	0xbc9a78c4	-0.018856414
116	0xbd0de6f4	-0.034644082
117	0x3ce427d4	0.027851023
118	0x3c0f7966	0.008756971
119	0xbd2dab7c	-0.04239987
120	0x3c29d8ba	0.010366613
121	0xbd57f4bb	-0.052723628
122	0x3d76849c	0.06018506
123	0xbd2046e5	-0.03913011
124	0x3d73ba3c	0.05950378
125	0xbc5605a5	-0.013062869
126	0xbb1e34fc	-0.0024140468
127	0x3c0836c0	0.008313835
128	0xbd40f368	-0.04710713
129	0xbc646c2c	-0.013941806
130	0xbd4e1c4c	-0.050319955
131	0x3d43ece5	0.047833342
132	0xbc88b6a8	-0.01668866
133	0xbcdaf042	-0.026725892
134	0x3c9c0df3	0.01904962
135	0x3d1e797e	0.038690083
136	0x3d0fc5cd	0.035100747
137	0x3d8229ff	0.06355666
138	0x3d2e1604	0.042501464
139	0x3d17d1ec	0.03706543
140	0x3c336aae	0.010950727
141	0x3ca93962	0.020657245
142	0x3d80693b	0.06270071
143	0xbd5ac073	-0.05340619
144	0x3cdcbc0e	0.02694514
145	0x3d10a4b0	0.03531331
146	0xbc611601	-0.013738156
147	0x3d113e68	0.035459906
148	0x3d832702	0.064039245
149	0x3c345092	0.011005538
150	0x3b94a0fb	0.004535792
151	0xbd55015f	-0.05200326
152	0xbc09c541	-0.008408845
153	0x3b1a912a	0.002358506
154	0xbd5d229d	-0.053988088
155	0x3d5697b9	0.052390788
156	0x3d2d109a	0.04225216
157	0x3cfa8252	0.03057972
158	0x3d03231b	0.0320159
159	0x3d4787ec	0.04871361
160	0xbc7a1060	-0.015262693
161	0x3b8217b8	0.0039701127
162	0xbc622d1a	-0.013804698
163	0xbd61002e	-0.054931812
164	0x3b4d3924	0.0031314576
165	0xbc24dc9a	-0.010062361
166	0xbd52aca7	-0.051434185
167	0x3d5484a4	0.05188431
168	0x3cd98d48	0.026556626
169	0xbca46458	-0.020067379
170	0x3d51e1bd	0.05124067
171	0x3d162d06	0.03666403
172	0xb7a3bc7f	-1.951889e-05
173	0x3d79685f	0.06089055
174	0xbac24c40	-0.001482375
175	0x3d6058b3	0.05477209
176	0x3d3b31b7	0.04570171
177	0xbcd01ce8	-0.025404409
178	0x3d66315c	0.056199417
179	0xbcae735b	-0.02129524
180	0xbd19af65	-0.037520785
181	0x3baf6998	0.005353164
182	0xbc86683b	-0.016407123
183	0x3d3b222a	0.04568688
184	0xbbcacaec	-0.006188741
185	0xbd6914c2	-0.05690456
186	0xbbdb9b53	-0.0067018657
187	0xbd4bb28d	-0.049730826
188	0x3bb4dba5	0.0055193477
189	0x3d7c794b	0.06163911
190	0x3b9ff825	0.004881876
191	0x3d292159	0.04129157
192	0xbd541ea8	-0.05178705
193	0x3cc0d3cc	0.023538493
194	0xbce4dcda	-0.027937341
195	0xbc95c3ed	-0.018281901
196	0xbc22720e	-0.009914888
197	0x3ba99b51	0.005175986
198	0x3d69f9a9	0.05712286
199	0x3d463edb	0.048399787
200	0xbbb185b9	-0.0054175523
201	0x3c435999	0.011923217
202	0x3d31b286	0.043383144
203	0xbd2ec115	-0.042664606
204	0x3d12916f	0.035783228
205	0x3d7530eb	0.059861105
206	0x3d17a728	0.037024647
207	0xbc9023c0	-0.017595172
208	0xbd3f2ea1	-0.04667533
209	0x3d648649	0.055792127
210	0x3d13e394	0.036105707
211	0x3d12a6f0	0.035803735
212	0x3d5721c3	0.052522432
213	0x3ca00777	0.01953481
214	0xbd73b41d	-0.05949794
215	0xbd191254	-0.037370995
216	0x3caebf66	0.0213315
217	0xbc816c65	-0.015798757
218	0x3d377d8e	0.044797473
219	0x3cd5eb28	0.026113108
220	0x3d632fa2	0.055465348
221	0x3cc30fee	0.023811307
222	0x3d5199ac	0.051171944
223	0xbc7a749e	-0.015286593
224	0xbce83bde	-0.02834886
225	0xbcbb719d	-0.022881323
226	0x3d6f530c	0.05842881
227	0x3cee7668	0.029109195
228	0xbb9d2ea3	-0.0047968193
229	0xbc920732	-0.017825697
230	0x3b99ef88	0.004697744
231	0x3cf3d224	0.029763289
232	0x3bedb14e	0.0072538024
233	0xbc7ed7a3	-0.0155543415
234	0xbcf0322d	-0.0293208
235	0x3d3fd9d5	0.0468386
236	0x3ca39ff3	0.01997373
237	0xbcab9e22	-0.020949427
238	0xbcb9aa5b	-0.02266424
239	0xbcb495c5	-0.022044072
240	0x3c11f016	0.008907339
241	0xbcba27e9	-0.022724109
242	0xbd575b41	-0.05257726
243	0x3d1493b4	0.036273673
244	0x3cab0021	0.020874085
245	0x3d27ae84	0.040937915
246	0x3d5aae77	0.05338904
247	0x3d6cdc7c	0.057827458
248	0xbd542e18	-0.05180177
249	0xbd492245	-0.049104948
250	0x3d568732	0.052375026
251	0x3d04792a	0.032342114
252	0xbaf4466d	-0.0018636711
253	0x3bda02b2	0.0066531533
254	0x3ba8adae	0.0051476574
255	0xbd60cb37	-0.0548813

fc1.bias f4 [120]
0	0x3c3b447c	0.011429902
1	0xbc765613	-0.01503517
2	0x3c5ffbae	0.013670845
3	0x3cecefd1	0.028922947
4	0x3bbed088	0.0058231987
5	0x3c9f03a2	0.019410912
6	0xbd35061b	-0.044195276
7	0x3c9d880e	0.019229915
8	0x3d6d62cc	0.05795555
9	0xbc4cc4ad	-0.012498063
10	0x3d83a7b7	0.064284734
11	0xbd797905	-0.06090643
12	0x3c09e203	0.008415702
13	0x3d7deca4	0.061993256
14	0x3d0a3136	0.033738337
15	0xbc9db70f	-0.019252328
16	0xbc88a198	-0.016678616
17	0x3ce61104	0.028084286
18	0x3ba822a6	0.0051310835
19	0xbc1ba4c8	-0.009499736
20	0xbd271ab6	-0.040796958
21	0x3d82a1c5	0.06378511
22	0x3d765b5d	0.060145725
23	0x3bdcf922	0.006743566
24	0x3b04a766	0.0020241379
25	0x3d1588e9	0.03650752
26	0x3d06dc2c	0.032924816
27	0xbc7ce173	-0.015434611
28	0xbc52efeb	-0.012874584
29	0xbbee09ba	-0.007264343
30	0xbd16288c	-0.036659762
31	0x3d6b2d27	0.057416108
32	0x3d0802e4	0.03320588
33	0x3c520b81	0.012820126
34	0x3d23372d	0.03984754
35	0x3d028b41	0.031871084
36	0x3c883125	0.016624996
37	0xbce486b8	-0.02789627
38	0xbc086cba	-0.008326704
39	0xbd1cfc64	-0.038326636
40	0xbce34908	-0.027744785
41	0xbd275535	-0.040852744
42	0x3d7cdb28	0.06173244
43	0x3c3f92de	0.011692731
44	0x3adfbc54	0.0017069676
45	0xbd1b2819	-0.037880037
46	0x3c823523	0.015894478
47	0x3d1b807c	0.03796433
48	0xbd3f389e	-0.046684854
49	0xbbb9710d	-0.0056592287
50	0x3d03cc26	0.032177113
51	0x3b43f312	0.002989952
52	0xbd6ccf93	-0.057815146
53	0xbd5eeca0	-0.054424882
54	0x3d09c28b	0.033632796
55	0x3d0173e3	0.03160466
56	0x3ce1c710	0.02756074
57	0x3d1824eb	0.037144583
58	0x3d2ddd5e	0.04244744
59	0x3d3949c4	0.045236364
60	0x3b5e68d9	0.0033937006
61	0xbd39a66c	-0.045324728
62	0x3b1fe76e	0.0024399417
63	0xbd7a5c98	-0.06112346
64	0xbca87d1b	-0.020567467
65	0x3c8aebcf	0.016958145
66	0xbcf6f183	-0.030144459
67	0x3d857e31	0.0651821
68	0xbd09f992	-0.033685274
69	0xbd179691	-0.037008826
70	0x3d23bd22	0.039975293
71	0x3ccca6ee	0.024981942
72	0xbd6616ca	-0.056174077
73	0x3b62be8f	0.0034598445
74	0xbd3d46ea	-0.046210207
75	0xbc1bab40	-0.009501278
76	0xbc3885fb	-0.011262412
77	0xbbad628c	-0.0052912887
78	0x3c94fb10	0.018186122
79	0x3cf266fb	0.02959012
80	0xbd24ae1a	-0.0402051
81	0x3c3ee60a	0.011651525
82	0x3c00c2df	0.007858961
83	0x3d3332ca	0.043749608
84	0xbd3c4c6e	-0.045971327
85	0xbcd8beb3	-0.02645812
86	0xbc91a4ef	-0.017778842
87	0xbd31d332	-0.043414302
88	0xbc9830c6	-0.018577944
89	0xbd039bb2	-0.032130904
90	0xbba7ccfb	-0.005120871
91	0x3c1d5af7	0.009604207
92	0x38e57f6e	0.000109433066
93	0xbce2341a	-0.027612735
94	0xbcc1a2fc	-0.023637287
95	0xbd52f926	-0.051507138
96	0xba0297de	-0.00049817364
97	0xbb7ef750	-0.0038904734
98	0x3d8025c8	0.06257206
99	0x3cd168bc	0.025562637
100	0xbcf9adbb	-0.030478349
101	0xbcc1e28a	-0.023667593
102	0x3d24b87e	0.040215008
103	0x3d18dc03	0.037319195
104	0x3d520015	0.05126961
105	0x3cd6c626	0.026217531
106	0x3d7b86f7	0.06140801
107	0x3d77a9f8	0.06046483
108	0x3d093cb0	0.03350514
109	0x3c1791cd	0.00925107
110	0x3d0ec721	0.034857873
111	0x3d0f6679	0.035009835
112	0xbd0952ad	-0.03352611
113	0x3c181f92	0.009284871
114	0x3d088d2a	0.03333775
115	0x3d37d4c5	0.044880647
116	0x3d1ea4d2	0.038731404
117	0xbceb13e9	-0.028696017
118	0xbd398e1e	-0.04530155
119	0x3c4e2808	0.012582786

fc2.weight f4 [84, 120]
0	0x3d908170	0.07055938
1	0x3ca3cbf3	0.019994712
2	0xbce55f46	-0.027999531
3	0x3cd16726	0.02556188
4	0x3d167e75	0.036741693
5	0x3b8f9e54	0.004382888
6	0xbd1a7c5a	-0.037716247
7	0x3d222f4f	0.0395959
8	0xbd3acea7	-0.045607235
9	0xbc883481	-0.016626598
10	0xbc583d8b	-0.013198267
11	0xbd841d55	-0.06450907
12	0x3d282e74	0.041059926
13	0xbc1ff4b9	-0.009762936
14	0xbc8f7de1	-0.017516078
15	0x3d3d26e0	0.046179652
16	0x3c8937a3	0.016750162
17	0x3d2b39ed	0.04180329
18	0xbd5b1a48	-0.05349186
19	0xbc53d70a	-0.012929687
20	0xbbe05916	-0.0068465574
21	0xbd091a80	-0.033472538
22	0x3d2a6f34	0.041609958
23	0x3d8c97c8	0.068648875
24	0x3b886f6d	0.0041636736
25	0x3cd747f2	0.026279423
26	0xbcd0ed8b	-0.025503894
27	0xbd6eaff3	-0.058273267
28	0xbd99022a	-0.07471116
29	0x3d4bdfb1	0.049773876
30	0x3d9384da	0.07203074
31	0x3dabe9aa	0.08394177
32	0x3d823bc5	0.063590564
33	0xbdc0861d	-0.0940058
34	0xbd25d576	-0.040486775
35	0x3dbd39ab	0.09239515
36	0x3d977bc0	0.0739665
37	0x3d883c38	0.06652111
38	0xbd1a0ce3	-0.037609946
39	0x3dc0d0be	0.094148144
40	0x3d9e3710	0.07725346
41	0x3d19ec99	0.037579153
42	0xbccf76ab	-0.02532514
43	0x3bc3d713	0.0059765666
44	0x3d0c435d	0.03424393
45	0x3d1f9313	0.03895862
46	0xbc497351	-0.01229556
47	0xbd330640	-0.043707132
48	0x3d7fae4a	0.062422074
49	0xbc9a15a1	-0.018809142
50	0xbdb00bcf	-0.08596002
51	0xbd53a69f	-0.051672574
52	0xbc2f80dc	-0.010711875
53	0x3d26a203	0.04068185
54	0x3d6ad111	0.057328288
55	0x3d1981c5	0.037477273
56	0xbd98bacb	-0.07457503
57	0x3d9db3ac	0.07700285
58	0xbac510b8	-0.001503489
59	0x3d949837	0.07255595
60	0xbd5096f3	-0.050925206
61	0x3d29f71a	0.04149542
62	0x3d01d042	0.03169275
63	0x3c3ea171	0.01163517
64	0xbbe23ba3	-0.006904082
65	0xbbcc2ad6	-0.0062306924
66	0xbd65676e	-0.05600684
67	0x3dbf4f7b	0.093413316
68	0xbd6b572e	-0.057456188
69	0xbd654234	-0.05597134
70	0x3cf79605	0.030222902
71	0x3ccebd31	0.025236698
72	0xbda8246f	-0.08210074
73	0x3d640ec9	0.055678163
74	0x3d993dc0	0.07482481
75	0xbad0ce6f	-0.0015930663
76	0x3d13d02c	0.0360872
77	0xbd545a03	-0.051843654
78	0xbd9a774a	-0.07542284
79	0xbb2598b0	-0.002526801
80	0xbc3f92ab	-0.011692683
81	0x3d0ac7ab	0.033881824
82	0xbd832e84	-0.064053565
83	0x3d40ea76	0.0470986
84	0x3b1ce53a	0.002394034
85	0xbc5f74ef	-0.013638719
86	0xbcc56688	-0.024096742
87	0x3d81dbd7	0.06340759
88	0x3d9de1c4	0.07709077
89	0xbca443c8	-0.020051852
90	0x3cf756be	0.03019273
91	0x3c5cd81b	0.013479258
92	0x3da21631	0.07914389
93	0x3d155a27	0.03646293
94	0x3d142baa	0.036174454
95	0xbd642ef9	-0.05570886
96	0xbdba8272	-0.09106912
97	0xbdb3a14e	-0.08771001
98	0x3cdcbc67	0.026945306
99	0xbc863e35	-0.016387084
100	0xbd6fd2dd	-0.058550704
101	0x3d389cee	0.045071535
102	0xbda1657e	-0.07880686
103	0xbd10ea5a	-0.035379745
104	0xbd575ac8	-0.05257681
105	0x3c6b4188	0.014358886
106	0xbc4a8a1f	-0.012362032
107	0xbd1b6965	-0.03794231
108	0x3c020815	0.007936497
109	0xbc590d24	-0.013247762
110	0x3d439927	0.04775348
111	0x3d2a19d7	0.04152855
112	0xbd81c4a1	-0.06336332
113	0xbd8d19f3	-0.06889715
114	0x3d48f106	0.049057983
115	0xbda02c2b	-0.07820924
116	0x3dbd4fc5	0.092437305
117	0xbdac7b0e	-0.08421908
118	0x3d0e6c6d	0.03477137
119	0xbc4d8e08	-0.01254607
120	0xbcfdd0a3	-0.030983275
121	0xbd648ce5	-0.05579843
122	0xbd493f81	-0.049132828
123	0x3c22a4b4	0.009926964
124	0xbcf0408b	-0.029327651
125	0xbd9cbe1e	-0.076534495
126	0x3c13ef11	0.009029166
127	0xbdae301b	-0.08505269
128	0x3d96c3d0	0.07361567
129	0xbcd23b11	-0.02566293
130	0x3c78dc32	0.015189217
131	0xbd2a4c2a	-0.041576542
132	0x3d5af9fb	0.053461056
133	0x3d8bce6e	0.06826483
134	0x3d865642	0.06559421
135	0xbda066f6	-0.07832138
136	0xbc6887c4	-0.014192525
137	0xbd71dd34	-0.059048846
138	0xbd718a45	-0.058969755
139	0xbd78c3e2	-0.060733683
140	0x3ce261c6	0.027634513
141	0x3d146c1a	0.036235906
142	0xbd63738a	-0.05553011
143	0xbc8baaf3	-0.017049288
144	0xbd885458	-0.06656712
145	0x3d127096	0.0357519
146	0xbd1eeb84	-0.038798824
147	0xbda2f779	-0.07957358
148	0x3dbd43ba	0.092414334
149	0x3d9b6210	0.07587063
150	0x3d939054	0.07205263
151	0x3c44fa83	0.012022617
152	0xbd9ba15c	-0.07599136
153	0x3d95f652	0.073223725
154	0xbcdb23a2	-0.02675039
155	0xbdb27f99	-0.087157436
156	0x3d27f503	0.041005146
157	0x3d87ac7e	0.06624697
158	0xbdcac909	-0.09901626
159	0x3cbecede	0.023292001
160	0x3da1690e	0.07881366
161	0x3da81151	0.08206428
162	0x3c8be98a	0.017079134
163	0x3d94a1e2	0.07257439
164	0xbd94f8fd	-0.07274053
165	0xbdb305b4	-0.08741322
166	0x3d44af5a	0.04801879
167	0x3d25cc69	0.040478144
168	0xbd5b9cda	-0.053616382
169	0x3d463c87	0.048397567
170	0xbcb69040	-0.02228558
171	0x3c358f73	0.011081564
172	0xbcea8403	-0.028627401
173	0x3db93bed	0.09044633
174	0x3cc5a5e9	0.024126964
175	0x3d49481a	0.049141027
176	0xbd059804	-0.032615677
177	0xbcf21577	-0.02955125
178	0x3d021b76	0.03176447
179	0xbd4b8f76	-0.049697362
180	0x3da5880c	0.080825895
181	0xbd57d72a	-0.05269543
182	0x3c1a484b	0.00941665
183	0x3bd09caf	0.0063663344
184	0xbc1d2aa7	-0.009592689
185	0xbd8e7bc9	-0.06957204
186	0x3d1981ca	0.037477292
187	0x3d8bd482	0.06827642
188	0x3bd9deef	0.00664889
189	0xbcf49356	-0.029855411
190	0xbd60b785	-0.054862518
191	0x3dacc9e1	0.08436943
192	0xbd0fff21	-0.03515542
193	0xbd0a844f	-0.033817586
194	0x3c83f584	0.016108282
195	0x3d13b8ba	0.03606484
196	0x3cdfa7c2	0.027301673
197	0xbd844a68	-0.06459504
198	0x3d4a6ea5	0.049421925
199	0xbb842bac	-0.0040335264
200	0xbd746f11	-0.059676234
201	0x3d13f450	0.036121666
202	0xbd94aaeb	-0.072591625
203	0x3d1ee425	0.038791794
204	0x3d3f9579	0.046773408
205	0x3d4e01a8	0.05029455
206	0x3d37a87c	0.044838414
207	0xbdacf4b8	-0.08445114
208	0x3be95fc2	0.007122011
209	0x3d43c3a0	0.047793984
210	0xbd8e0ab2	-0.06935634
211	0x3c1a8fcd	0.009433699
212	0xbd765b63	-0.060145747
213	0x3d7066fd	0.058691967
214	0xbdbf4eaa	-0.09341176
215	0xbd1992b3	-0.03749342
216	0x3d72ec8c	0.05930762
217	0x3dc695e2	0.09696557
218	0x3dbb749e	0.09153102
219	0x3da6212f	0.08111798
220	0xbc423a0c	-0.01185466
221	0xbc9320ad	-0.017959917
222	0x3c4f8bac	0.012667578
223	0x3d61407d	0.05499314
224	0xbdc43c80	-0.09581852
225	0xbd983b1d	-0.0743315
226	0xbd58c911	-0.052926127
227	0xbb46373c	-0.0030245325
228	0x3d74060f	0.05957609
229	0x3c2fd536	0.010731986
230	0xbd457b5c	-0.048213348
231	0x3d9b4664	0.07581785
232	0xbd079369	-0.033099566
233	0xbccc81fa	-0.024964321
234	0x3ce63531	0.028101536
235	0x3d445b68	0.047938734
236	0xbd8ff12d	-0.070284225
237	0x3d41f8ae	0.0473563
238	0xbd796b95	-0.060893614
239	0xbd58094b	-0.052743237
240	0x3ce639f5	0.028103808
241	0x3daac505	0.0833836
242	0x3c95c518	0.018282458
243	0x3d81a8bc	0.06331012
244	0x3cbc6263	0.022996133
245	0x3d42c999	0.04755554
246	0xbd55d01f	-0.052200433
247	0x3cf0cf05	0.02939559
248	0x3d99f5f8	0.07517618
249	0x3d29458f	0.041326102
250	0xbd2d2caf	-0.04227894
251	0xbd8005c8	-0.06251103
252	0xbbff646b	-0.007793953
253	0x3dbb37bd	0.091414906
254	0xbd48242d	-0.048862625
255	0x3aa2ab1d	0.0012410615

fc2.bias f4 [84]
0	0x3d8cd521	0.068765886
1	0x3d49e92f	0.049294647
2	0x3daf4fc1	0.08560134
3	0xbdb20e4a	-0.08694132
4	0xbd6f2830	-0.058387935
5	0xbcf03998	-0.029324338
6	0xbdac1dd2	-0.08404125
7	0x3d5b5407	0.05354693
8	0x3da624c0	0.08112478
9	0xbd30ae99	-0.04313526
10	0x3d5fba48	0.05462101
11	0x3d9e2322	0.07721545
12	0x3d93f3fd	0.072242714
13	0xbd705ec3	-0.05868412
14	0x3da08240	0.07837343
15	0x3db22152	0.086977616
16	0x3db38497	0.08765524
17	0x3ccfb77c	0.025356047
18	0x3d884e48	0.06655556
19	0x3d9ebcd7	0.07750862
20	0xbce7c70b	-0.028293153
21	0xbd13f2f6	-0.036120377
22	0x3dbabffa	0.09118648
23	0xbc326fca	-0.01089091
24	0xbdb16b74	-0.08663073
25	0x3d478fa8	0.048720986
26	0xbd7fa2fc	-0.062411293
27	0xbd7b78df	-0.06139457
28	0xbdb84ce2	-0.08999039
29	0xbcc9559a	-0.02457695
30	0x3d3eff76	0.046630345
31	0xbd4915d6	-0.04909309
32	0x3db1b03e	0.08676194
33	0xbcddc3cb	-0.0270709
34	0xbd976617	-0.07392519
35	0x3d485a17	0.04891404
36	0xbce15263	-0.027505105
37	0x3d453f18	0.048155874
38	0x3d046488	0.032322437
39	0xbd8a8613	-0.06763854
40	0xbd863a0e	-0.06554042
41	0x3cf4569a	0.029826451
42	0x3dbb7b49	0.09154374
43	0x3d9c0c06	0.07619481
44	0xbd7fc89b	-0.06244717
45	0x3d7c4ca1	0.061596517
46	0xbd976f0a	-0.07394226
47	0xbdae2549	-0.08503205
48	0x3d1ffd87	0.039060142
49	0xbda01e71	-0.07818306
50	0xbd1f36ef	-0.038870748
51	0xbc3d7f0d	-0.011565936
52	0x3d36268a	0.044470347
53	0xbd930cc7	-0.071801715
54	0x3bfb18e5	0.00766288
55	0x3d969117	0.073518924
56	0x3c824249	0.015900748
57	0x3d8f8af3	0.07008924
58	0xbc57645f	-0.013146489
59	0xbc6851b5	-0.014179637
60	0xbd237e10	-0.039915144
61	0x3dadb645	0.08482031
62	0xbdb19288	-0.08670527
63	0xbba699b2	-0.00508424
64	0xbd41d619	-0.04732332
65	0xbdc22cda	-0.09481211
66	0x3d06ab52	0.032878228
67	0xbd25278e	-0.040320925
68	0x3d0d485a	0.034492828
69	0x3ba38ad7	0.0049909162
70	0x3d12e003	0.035858165
71	0xbdb8a4a1	-0.090157755
72	0xbd58a718	-0.052893728
73	0xbd0eef20	-0.034896016
74	0x3d721061	0.05909765
75	0xbcef1b84	-0.029187925
76	0xbd3d5f93	-0.046233725
77	0xbd7b152a	-0.06129948
78	0x3d47ca9b	0.048777204
79	0xbd1ac4cd	-0.03778534
80	0xbd95eef8	-0.0732097
81	0xbd1ced38	-0.038312167
82	0x3c4b9601	0.0124259
83	0xbd958d72	-0.07302369

fc3.weight f4 [10, 84]
0	0x3c7d831f	0.015473156
1	0xbdf237a6	-0.1182702
2	0x3de00d0a	0.10939987
3	0x3ba69c69	0.0050845635
4	0x3db8db3d	0.090261914
5	0xbd39c494	-0.045353487
6	0xbd436fea	-0.04771415
7	0xbdd07fb6	-0.10180609
8	0x3d687da3	0.05676044
9	0x3db07f28	0.08618003
10	0xbdea3e40	-0.114376545
11	0xbda088fd	-0.078386284
12	0x3da66f58	0.08126706
13	0xbdfb7e7a	-0.12279983
14	0xbbf9d877	-0.0076246816
15	0xbda40626	-0.08008985
16	0xbd8e29c9	-0.06941564
17	0x3da80090	0.08203232
18	0x3dd2354c	0.10264072
19	0x3db6900b	0.08914193
20	0x3cd91c7d	0.026502842
21	0xbd4fa46a	-0.050693907
22	0xbdb1e57e	-0.0868635
23	0x3d8d56b9	0.06901307
24	0x3b3ae088	0.0028515179
25	0x3db0416f	0.086062305
26	0xbc1d01ec	-0.009582978
27	0x3d043541	0.03227735
28	0xbdae79d6	-0.08519332
29	0x3d85e850	0.06538451
30	0xbd8857fe	-0.06657408
31	0xbd4931e7	-0.049119856
32	0x3d06195d	0.032739032
33	0x3ca7eab3	0.020497655
34	0xbd86283e	-0.06550644
35	0xbda32476	-0.07965939
36	0x3db63e53	0.08898606
37	0xbc723238	-0.014782481
38	0xbda1c664	-0.07899168
39	0x3d92cd8b	0.071681105
40	0xbd2a5415	-0.041584093
41	0xbdd0b32e	-0.10190426
42	0x3d96a545	0.073557414
43	0xbde78df8	-0.11306375
44	0xbd37b1f5	-0.044847447
45	0x3d85de6c	0.06536564
46	0xbda6a3a2	-0.08136679
47	0xbdb27cfa	-0.08715244
48	0x3be134f5	0.006872768
49	0xbb91bd6f	-0.004447631
50	0x3d3befd0	0.045883
51	0x3b82219e	0.0039712926
52	0x3d9b4e6f	0.075833194
53	0xbd23924b	-0.039934438
54	0xbdb03001	-0.08602906
55	0xbd661b05	-0.05617811
56	0xbd84e52d	-0.06489024
57	0xbd845881	-0.06462193
58	0xbc9bbb21	-0.019010128
59	0x3d409f60	0.04702699
60	0xbdc9fcbd	-0.09862659
61	0xbdea6803	-0.1144562
62	0x3d2ce7ba	0.04221318
63	0x3ace4349	0.0015736605
64	0x3ceae0f5	0.028671721
65	0x3cd3293d	0.0257765
66	0x3d36852e	0.044560604
67	0x3c5464c5	0.012963478
68	0xbdf38622	-0.11890818
69	0x3c79ae09	0.015239247
70	0x3dab670d	0.08369265
71	0xbc5c3828	-0.013441123
72	0x3db7b92a	0.08970864
73	0x3ce576b2	0.0280107
74	0x3da0fee3	0.07861116
75	0xbdbf6e56	-0.09347217
76	0x3de7e158	0.11322278
77	0x3cc2c002	0.023773197
78	0xbd6966c1	-0.05698276
79	0xbd0bfdb8	-0.034177512
80	0xbba9e397	-0.0051846015
81	0x3d7b8bd0	0.061412632
82	0xbcd041c4	-0.025421984
83	0xbddd3c74	-0.10802546
84	0xbd7b3403	-0.0613289
85	0xbcc495cf	-0.023997216
86	0xbc41cdc5	-0.011828844
87	0x3d2f7c0f	0.04284292
88	0xbc868d57	-0.016424818
89	0xbc91c50e	-0.017794158
90	0x3da394b2	0.07987346
91	0xbdae7e1f	-0.085201494
92	0x3de9edf0	0.11422336
93	0x3d9cceec	0.07656655
94	0x3db29346	0.087194964
95	0xbdb8e428	-0.09027892
96	0x3c2f61ec	0.010704499
97	0xbd8b2a15	-0.06795136
98	0x3d32034d	0.04346018
99	0xbde5aa85	-0.11214165
100	0xbcb4c83e	-0.02206814
101	0xbd204285	-0.039125938
102	0x3d4aaec9	0.049483094
103	0x3d201b02	0.039088257
104	0xbdd42a41	-0.10359622
105	0xbd2a207c	-0.041534886
106	0xbca85e21	-0.020552697
107	0xbdea7142	-0.114473835
108	0x3c379fb6	0.011207512
109	0x3c2bd7f8	0.010488503
110	0x3dc4807b	0.09594818
111	0x3d0cf034	0.034408763
112	0x3db9cb01	0.09071923
113	0xbc9b09b7	-0.01892553
114	0x3db4fefa	0.088376954
115	0x3ce200f9	0.027588354
116	0x3d83c2b9	0.06433625
117	0xbdc8fb22	-0.09813525
118	0xbcad8fcf	-0.021186737
119	0x3d518bb8	0.051158637
120	0x3d4dea8d	0.050272513
121	0xbd8fb3cc	-0.070167154
122	0x3c38ab27	0.011271275
123	0xbdf727f7	-0.120681696
124	0xbc2ec9f6	-0.010668268
125	0x3dd8363c	0.105572194
126	0xb99553a5	-0.00028481815
127	0x3c92d7e0	0.017925203
128	0xbd9df1ad	-0.077121116
129	0xbd4cc31e	-0.049990766
130	0xbd9b9656	-0.07597034
131	0xbc95019e	-0.018189248
132	0x3dca4afa	0.09877582
133	0xbd0d5b53	-0.03451092
134	0x3c8cd1a0	0.0171898
135	0x3d710c37	0.05884954
136	0x3cc65282	0.024209265
137	0x3cda2cf8	0.02663277
138	0xbd415717	-0.047202196
139	0xbd71ca20	-0.059030652
140	0x3bf605b5	0.0075080045
141	0x3d1c1f44	0.038115755
142	0xbd891650	-0.06693709
143	0xbdf6d442	-0.12052204
144	0x3d4197c5	0.04726388
145	0xbc3542a0	-0.011063248
146	0x3dce6ea1	0.100796945
147	0x3c8db8c0	0.01730001
148	0xbd951a7c	-0.07280442
149	0x3be33a49	0.0069344384
150	0x3cb1b397	0.02169208
151	0xbdb27559	-0.087137885
152	0xbdbbec03	-0.09175875
153	0xbd3fb7a6	-0.046806
154	0x3b24018a	0.0025025331
155	0xbddc6397	-0.10761183
156	0xbc67a550	-0.014138535
157	0x3bb7d535	0.005610133
158	0xbd9b06d9	-0.075696655
159	0x3dc60d07	0.096704535
160	0x3c30ef8f	0.010799303
161	0x3d9a5e85	0.075375594
162	0xbdea206e	-0.11431967
163	0x3c5db105	0.013530974
164	0xbdae9580	-0.085246086
165	0x3db0444b	0.08606776
166	0x3d8b648a	0.06806286
167	0x3de7b56c	0.113139
168	0xbd1c0022	-0.038086064
169	0x3dce1f31	0.10064543
170	0x3da03345	0.07822279
171	0xbc6485ed	-0.013947946
172	0x3db8667c	0.09003922
173	0xbdcb44a9	-0.09925205
174	0xbc4bde68	-0.0124431625
175	0xbcb2c799	-0.021823691
176	0x3dd73e88	0.10509974
177	0x3c81f71b	0.0158649
178	0x3c2c9d66	0.010535574
179	0x3cc0ce0c	0.02353575
180	0xbd7cd9a8	-0.06173101
181	0x3dba39c3	0.090930484
182	0x3dbbb916	0.09166162
183	0xbd8ef19b	-0.06979676
184	0x3d758886	0.059944652
185	0xbcba04e8	-0.022707418
186	0x3d9868a5	0.07441834
187	0xbcb0ebe8	-0.021596864
188	0x3dd01c82	0.101616874
189	0x3b8177ed	0.003951064
190	0x3d2aeaaa	0.0417277
191	0xbd80d2f0	-0.06290233
192	0x3c6f7411	0.014615075
193	0xbdb59418	-0.08866137
194	0xbdcff407	-0.101539664
195	0xbdd101cb	-0.1020542
196	0x3dadb921	0.08482576
197	0xbb595a65	-0.0033165452
198	0x3ab79b3f	0.0014008059
199	0x3ce1b334	0.027551271
200	0xbd8544da	-0.06507273
201	0x3d6c6ff5	0.057723958
202	0xbdb2065f	-0.086926214
203	0x3dc3aad1	0.09554065
204	0xbc9aaed1	-0.018882187
205	0xbde30cd1	-0.11086429
206	0xbc5abc6b	-0.013350586
207	0xbde2810f	-0.11059772
208	0x3ded7b70	0.115958095
209	0x3d80a59d	0.06281588
210	0x3cecf186	0.028923761
211	0xbdceff48	-0.10107285
212	0x3d44d41f	0.048053857
213	0x3d97a40d	0.07404337
214	0xbd9f638b	-0.07782658
215	0xbd6b2258	-0.0574058
216	0xbda385ea	-0.079845265
217	0xbd2daf3b	-0.04240344
218	0xbdc1f33b	-0.09470221
219	0xbcbd7e9d	-0.023131663
220	0x3da5e94f	0.08101141
221	0xbd480902	-0.048836716
222	0x3dc20adb	0.09474727
223	0xbdd38265	-0.10327605
224	0x3c2b589c	0.010458138
225	0xbde84ea4	-0.113431245
226	0x3ce9dcbc	0.028547637
227	0xbd209baa	-0.039210953
228	0x3bb85757	0.005625646
229	0xbd254c3e	-0.040355913
230	0xbd897106	-0.06711011
231	0xbd391dc4	-0.045194402
232	0xbdc15fac	-0.09442076
233	0x3d70fa38	0.058832377
234	0xbd6f7a59	-0.05846629
235	0x3d9f859a	0.07789154
236	0x3dbe58a4	0.092942506
237	0x3d90e8de	0.07075666
238	0x3d18c317	0.037295427
239	0xbcb4ce4f	-0.022071032
240	0x3d9ebc9b	0.077508174
241	0xbdd10d9a	-0.102076724
242	0xbca809f6	-0.020512562
243	0x3b63c58f	0.0034755205
244	0xbb9a7ccd	-0.0047145844
245	0xbd750425	-0.059818406
246	0xbc86a86d	-0.016437734
247	0xbd9594b1	-0.07303751
248	0xbdd37714	-0.10325447
249	0x3c4e3969	0.01258693
250	0xbdcdac5e	-0.10042642
251	0x3cfe81c8	0.031067744
252	0x3da55a57	0.080738716
253	0xbd27e865	-0.040993113
254	0xbcd8fe06	-0.026488315
255	0xbd58bace	-0.052912526

fc3.bias f4 [10]
0	0x3ce7b9db	0.028286865
1	0x3da68e9e	0.08132671
2	0xbdaaa69a	-0.08332558
3	0x3db96f49	0.09054429
4	0x3d42e85d	0.04758488
5	0xbdaa00ed	-0.08300958
6	0xbdb1ff96	-0.08691327
7	0xbc6af025	-0.0143394815
8	0xbd8d31cb	-0.06894263
9	0xbc74a4be	-0.014931856

exp_avg f4 [6, 1, 5, 5]
0	0x3c4455a6	0.011983311
1	0x3b5f6f5e	0.003409348
2	0xbba9af27	-0.0051783505
3	0xbcd8c599	-0.02646141
4	0xbd350bb0	-0.0442006
5	0x3be96bae	0.007123432
6	0x3ac98e78	0.0015377542
7	0xbc32090c	-0.010866415
8	0xbd2d6b3b	-0.04233859
9	0xbd64bfb4	-0.055846885
10	0x3b5cb4c9	0.0033677092
11	0xbb8cf6f2	-0.004301899
12	0xbcdc66fc	-0.026904576
13	0xbd6e34f8	-0.058155984
14	0xbd824e75	-0.06362621
15	0xbbc1f459	-0.005919021
16	0xbca966d0	-0.020678908
17	0xbd47825d	-0.04870831
18	0xbd8dad16	-0.06917779
19	0xbd870278	-0.06592268
20	0xbc9ed64f	-0.0193893
21	0xbd19d0b6	-0.037552558
22	0xbd6e24f6	-0.058140717
23	0xbd8c2559	-0.06843061
24	0xbd6ded09	-0.058087382
25	0xb9874ff1	-0.00025808768
26	0xb7a878ec	-2.008347e-05
27	0x38aa78e9	8.128753e-05
28	0x36d8c980	6.4607593e-06
29	0xb8bf9fa9	-9.137329e-05
30	0xba264608	-0.0006342833
31	0xba80d761	-0.0009829813
32	0xbac9794c	-0.0015371232
33	0xbb0d8fe2	-0.0021600653
34	0xbb1f5e4c	-0.002431768
35	0xbb03c83f	-0.002010837
36	0xbb153814	-0.002276902
37	0xbb1234df	-0.0022309346
38	0xbb26daa9	-0.0025459921
39	0xbb646241	-0.0034848603
40	0xbb160196	-0.002288913
41	0xbb034e9c	-0.0020035869
42	0xbabc72ba	-0.0014377453
43	0xbaa94b46	-0.001291611
44	0xbb4f58c1	-0.0031638595
45	0xba719aae	-0.00092164695
46	0xb8d7ad92	-0.00010284329
47	0xb9042463	-0.00012602056
48	0xba090279	-0.00052265037
49	0xbb9b3732	-0.0047368044
50	0x3bccf25d	0.006254478
51	0xbb309b22	-0.0026947935
52	0xbc9abe0f	-0.018889455
53	0xbd05eab2	-0.032694526
54	0xbd0d4392	-0.03448827
55	0xbbb09127	-0.0053883973
56	0xbca13ca8	-0.019682243
57	0xbd1939f9	-0.037408803
58	0xbd3dd51d	-0.04634582
59	0xbd3ad310	-0.04561144
60	0xbcb389e4	-0.021916337
61	0xbd0e4031	-0.034729186
62	0xbd52851b	-0.05139647
63	0xbd7c8da6	-0.061658524
64	0xbd66f0b8	-0.05638191
65	0xbcec0708	-0.028811947
66	0xbd2605d5	-0.040532906
67	0xbd6f82f9	-0.058474515
68	0xbd84f214	-0.06491485
69	0xbd604745	-0.054755468
70	0xbcc78390	-0.024354726
71	0xbd0c6c23	-0.034282815
72	0xbd556112	-0.052094527
73	0xbd5d3357	-0.05400404
74	0xbd3135e3	-0.04326428
75	0xb938eb40	-0.00017635245
76	0xba32f9a0	-0.0006827358
77	0xbad13253	-0.0015960432
78	0xbb0d6c1e	-0.0021579335
79	0xbaa13d3e	-0.0012301577
80	0xb6741e11	-3.6376334e-06
81	0xb87fa7f0	-6.095314e-05
82	0xba79dade	-0.000953121
83	0xbb0701fa	-0.0020600543
84	0xbad0b778	-0.0015923819
85	0x38672e70	5.511794e-05
86	0x38409594	4.5915673e-05
87	0xb9aad2db	-0.00032582026
88	0xbafbedb3	-0.001922062
89	0xbb0bd550	-0.002133686
90	0xb8ad393d	-8.259944e-05
91	0xb89b53d5	-7.406591e-05
92	0xb976ae2c	-0.00023525272
93	0xbb150957	-0.0022741163
94	0xbb3d54d4	-0.0028889673
95	0xb9a9d8d3	-0.00032395739
96	0xb98e1cd8	-0.0002710584
97	0xba0e7047	-0.0005433601
98	0xbb22cf71	-0.0024842883
99	0xbb4b4744	-0.003101782
100	0xbc1587bf	-0.009126603
101	0xbb38aa7b	-0.0028177786
102	0xb911f9af	-0.00013921292
103	0x3802c302	3.117603e-05
104	0x37ad8cbc	2.0688742e-05
105	0xbbacc001	-0.005271912
106	0xba846847	-0.0010101878
107	0xb9b430e6	-0.00034368708
108	0xb8b43000	-8.5920095e-05
109	0x38483f75	4.7742815e-05
110	0xbab8d4b8	-0.0014101481
111	0xba190755	-0.00058375794
112	0xba0bbabe	-0.0005330256
113	0xb9d50611	-0.00040631046
114	0xb96ea26d	-0.00022757957
115	0xb95a1bab	-0.00020800407
116	0xb9cfd1a5	-0.00039638314
117	0xb9dfeb7a	-0.00042709318
118	0xb9ea81a1	-0.0004472854
119	0xb9953f51	-0.0002846667
120	0xb8c82c0b	-9.544947e-05
121	0xb97f754f	-0.00024362396
122	0xb99633e8	-0.00028648903
123	0xb987b02e	-0.0002588047
124	0xb9d04a36	-0.00039728143
125	0xbc31535a	-0.010823095
126	0xbc6a4803	-0.0142993955
127	0xbca07960	-0.019589126
128	0xbd035a95	-0.032068808
129	0xbd1acfbf	-0.03779578
130	0xbbeb7239	-0.0071852473
131	0xbc1f1e7c	-0.009711858
132	0xbc9f1caf	-0.019422857
133	0xbce09722	-0.027415816
134	0xbd029330	-0.03187865
135	0xbb53afdc	-0.0032300865
136	0xbbdfb314	-0.0068267677
137	0xbc94f226	-0.018181872
138	0xbcb080b1	-0.02154574
139	0xbcc00d6f	-0.023443906
140	0xba266375	-0.0006347218
141	0xbbcca7f4	-0.0062456075
142	0xbc84cef8	-0.016211972
143	0xbc9b9ba9	-0.018995123
144	0xbc9a906c	-0.018867694
145	0x3acd2fb9	0.0015654481
146	0xbbce01a3	-0.006286816
147	0xbc6deff7	-0.014522544
148	0xbc8b2630	-0.016985983
149	0xbc7c1d76	-0.015387883

exp_avg_sq f4 [6, 1, 5, 5]
0	0x376c207c	1.40742595e-05
1	0x36083ce4	2.0301022e-06
2	0x36641c1d	3.3991012e-06
3	0x38977489	7.2219475e-05
4	0x39564361	0.00020433731
5	0x36da1a1e	6.4999467e-06
6	0x35aa22f1	1.2676156e-06
7	0x373cb886	1.1248636e-05
8	0x393ec635	0.0001819365
9	0x39a6eeae	0.00031839818
10	0x36293034	2.521102e-06
11	0x35cfdf7d	1.5487745e-06
12	0x388efde8	6.8183814e-05
13	0x39afeb6e	0.0003355401
14	0x39ce8688	0.00039391615
15	0x3643aeed	2.9159085e-06
16	0x381dfd04	3.7667356e-05
17	0x396f570c	0.00022825244
18	0x39f2e9ff	0.00046332178
19	0x39d691c5	0.00040925868
20	0x380dcc61	3.3807362e-05
21	0x390d343a	0.00013466264
22	0x39ad935f	0.0003310693
23	0x39ed7088	0.00045288005
24	0x39a2cc56	0.0003105129
25	0x3254ae3e	1.2379642e-08
26	0x32386b62	1.0734626e-08
27	0x33002e34	2.9844344e-08
28	0x33ca612e	9.424035e-08
29	0x341ed8ba	1.4793741e-07
30	0x3350ab6d	4.8584685e-08
31	0x343214ad	1.6585064e-07
32	0x34d09453	3.885094e-07
33	0x3548eacd	7.4847486e-07
34	0x355ac55d	8.149853e-07
35	0x34d4dda3	3.964934e-07
36	0x352af865	6.3691397e-07
37	0x352d5cd7	6.458262e-07
38	0x355c226f	8.2006494e-07
39	0x35ac5cbb	1.2841987e-06
40	0x3508b666	5.092937e-07
41	0x34ec8b4f	4.4059786e-07
42	0x348a28e9	2.573427e-07
43	0x343e166b	1.7703285e-07
44	0x357474c5	9.1067005e-07
45	0x347cca4d	2.3542925e-07
46	0x33e26269	1.0541846e-07
47	0x32603f06	1.3052846e-08
48	0x32a64ed9	1.93608e-08
49	0x3614e324	2.2185932e-06
50	0x3708d2d3	8.155318e-06
51	0x35e2edef	1.690756e-06
52	0x37ccdbeb	2.4421102e-05
53	0x38b2d832	8.527971e-05
54	0x38dfc446	0.000106700274
55	0x36127e5e	2.182925e-06
56	0x37e199c8	2.68937e-05
57	0x38eaab51	0.000111899
58	0x3945dab7	0.00018868862
59	0x394fa361	0.00019801922
60	0x381913bb	3.6496418e-05
61	0x38c6b87f	9.475741e-05
62	0x396c1209	0.00022513432
63	0x39b78b61	0.00035008325
64	0x399e65b0	0.00030211871
65	0x38869f16	6.41925e-05
66	0x39099c46	0.00013123555
67	0x399dc58e	0.00030092563
68	0x39ccbc2b	0.00039050108
69	0x39955a92	0.00028486975
70	0x383d6532	4.5155357e-05
71	0x38c78e73	9.515593e-05
72	0x397c913b	0.00024086695
73	0x398f7348	0.00027360977
74	0x3939b2c4	0.0001770957
75	0x3138ddd6	2.6901623e-09
76	0x32f0062e	2.7942487e-08
77	0x341fa2ed	1.4867301e-07
78	0x3489574c	2.5581755e-07
79	0x33b4bcc3	8.416239e-08
80	0x302342a9	5.9393784e-10
81	0x327d5ea4	1.4748057e-08
82	0x33db5494	1.0213367e-07
83	0x348ee5b8	2.6616704e-07
84	0x345953d0	2.024019e-07
85	0x32a76e35	1.9491475e-08
86	0x3359c877	5.070657e-08
87	0x33ba0e3d	8.66389e-08
88	0x347c8551	2.3517829e-07
89	0x34856106	2.4843774e-07
90	0x33097896	3.200747e-08
91	0x330b0cf1	3.237523e-08
92	0x32a2f926	1.8972582e-08
93	0x3483de69	2.4562476e-07
94	0x34d983e9	4.0515377e-07
95	0x32814eeb	1.5053464e-08
96	0x32207cfa	9.341642e-09
97	0x329bd826	1.8142668e-08
98	0x34aa5549	3.172702e-07
99	0x350b95ee	5.199971e-07
100	0x37077b25	8.075299e-06
101	0x355eb43f	8.296374e-07
102	0x328e6c93	1.658035e-08
103	0x320598a6	7.776327e-09
104	0x3146432e	2.885098e-09
105	0x3636b915	2.7227845e-06
106	0x3439ddb5	1.7310124e-07
107	0x3378b505	5.7906636e-08
108	0x32d10560	2.4333247e-08
109	0x3179baca	3.6340446e-09
110	0x3428dad0	1.5725823e-07
111	0x338a499d	6.439516e-08
112	0x33b21cfd	8.294044e-08
113	0x3388f285	6.3771076e-08
114	0x33044bb5	3.08025e-08
115	0x316c0edd	3.4350969e-09
116	0x32fd31a8	2.9475657e-08
117	0x3335b68f	4.2308383e-08
118	0x33385c6a	4.292489e-08
119	0x33873ac3	6.297116e-08
120	0x3139863e	2.699735e-09
121	0x32c2280f	2.2602789e-08
122	0x32a1c336	1.8831638e-08
123	0x326db99a	1.38374165e-08
124	0x337ce050	5.8877333e-08
125	0x37263df6	9.908797e-06
126	0x377decc1	1.5135099e-05
127	0x37ecdf02	2.8237238e-05
128	0x38ae9bf1	8.326013e-05
129	0x38f7212f	0.00011784059
130	0x36a9607d	5.047825e-06
131	0x36f1178d	7.1851014e-06
132	0x37fd48a1	3.019377e-05
133	0x38817470	6.1728875e-05
134	0x38af8ccd	8.3708765e-05
135	0x35a66ad7	1.2399058e-06
136	0x3677e4da	3.6939077e-06
137	0x37ed07e3	2.8256274e-05
138	0x3827db8f	4.0020383e-05
139	0x383ed7eb	4.550062e-05
140	0x34b62018	3.3923493e-07
141	0x36810deb	3.84612e-06
142	0x37cf1508	2.4686116e-05
143	0x38088e3d	3.2557396e-05
144	0x37f87c13	2.962168e-05
145	0x352dacb1	6.469882e-07
146	0x36885dc5	4.064032e-06
147	0x37a89d07	2.0100282e-05
148	0x37d6c7c0	2.5603804e-05
149	0x37a5b14b	1.9752091e-05

exp_avg f4 [6]
0	0xbcfad6ee	-0.030620065
1	0xbc583b34	-0.013197709
2	0xbc8af4e2	-0.016962472
3	0xbb0fddd9	-0.00219523
4	0xbc2a58d1	-0.010397152
5	0xbcfa1335	-0.030526737

exp_avg_sq f4 [6]
0	0x39088d50	0.00013022614
1	0x37995eca	1.828316e-05
2	0x37ddae5d	2.6426447e-05
3	0x34a286f2	3.0273037e-07
4	0x372e765b	1.0398765e-05
5	0x38a6d54e	7.955228e-05
