logs/tensorboard_logs/MNIST/version_0/checkpoints/epoch=0-step=469.ckpt (torch, 544200 bytes, 30 tensors)

conv1.weight f4 [6, 1, 5, 5]
000000 29 b1 56 3d 1d 47 1a be e6 7e ae 3d 89 3d 3f 3e
       0.052415047 -0.1506619 0.08520298 0.18675818
000010 f3 28 55 3e 12 a9 56 bd ff 93 e6 bd de b9 a5 bd
       0.20816402 -0.05240733 -0.11258697 -0.08092092
000020 ae e4 9d 3d 2a be 08 be f8 6c d9 bb 58 e2 18 3e
       0.07709633 -0.13353792 -0.0066353045 0.14930093
000030 ed 57 08 3e 31 15 27 be 5a b8 45 3d 83 cb 08 3d
       0.13314791 -0.16316678 0.048271514 0.03339721
000040 28 24 2f bd 3b c8 0e 3d 60 66 0f be aa b9 35 3d
       -0.04275909 0.034858923 -0.14003897 0.044366516
000050 49 9c bc bd 4d 4b c1 bd e1 35 1b 3e 67 26 34 3e
       -0.092094965 -0.094381906 0.15157272 0.17592774
000060 13 df 8f bc 53 7f 02 be 59 7a 10 bd 58 ec 8f bd
       -0.017562425 -0.12743883 -0.03527293 -0.07027501
000070 aa 7c d3 bd 6b ce 05 bd a6 5e 17 be 6d ac 80 bd
       -0.10326512 -0.03266756 -0.147822 -0.062828876
000080 39 97 40 be a0 d1 ab 3d ea 19 86 bd 8f c7 0e be
       -0.18807687 0.08389592 -0.065479115 -0.13943313
000090 e8 92 e5 3d 71 1f fd 3b d1 df cf 3d 8c cb 77 bd
       0.11209661 0.0077246954 0.101501115 -0.06049685
0000a0 23 c5 40 3e f5 14 17 3d 2f 33 e8 3b 38 c6 21 3e
       0.18825202 0.03688522 0.0070861797 0.1579827
0000b0 a9 6f 36 3c 00 d7 68 bd d1 24 93 3d 69 94 38 bd
       0.01113502 -0.056845665 0.071847565 -0.04506341
0000c0 00 91 e4 bd d0 d9 d8 3d 7b 2a da bd 9b 98 35 3e
       -0.11160469 0.105884194 -0.10652634 0.17733996
0000d0 6d d0 31 be 33 9d e4 bd 2b 05 b8 3d 92 ce af 3b
       -0.17364664 -0.11162796 0.08985361 0.0053652013
0000e0 bf 20 d0 bd 6d f8 16 be e8 f5 13 be 5b c7 04 be
       -0.10162496 -0.14743204 -0.14449275 -0.12966673
0000f0 f8 fd 1f be f0 b2 56 3d bc 95 84 3d cf 58 16 3e
       -0.15624225 0.05241674 0.06473872 0.14682315
000100 bb e5 c1 bd 3a 82 17 be 14 f4 31 3e cc 85 a2 bd
       -0.09467646 -0.14795771 0.17378265 -0.07935676
000110 a5 b2 11 3e 10 df 4e be d3 33 27 3e f4 de 11 be
       0.14228304 -0.20202279 0.16328363 -0.14245206
000120 3e e7 e7 bd 35 69 f1 bd aa 20 2e be 34 e6 1f be
       -0.11323403 -0.11787645 -0.17004648 -0.1561516
000130 2a b4 10 be 1b bd 4b be 63 9c 1d bd a0 48 0b be
       -0.14131227 -0.19896357 -0.03847922 -0.13601923
000140 77 a2 b2 3c c4 12 30 3c da 29 98 bc 83 ec f0 bd
       0.021805985 0.010746662 -0.018574644 -0.11763861
000150 94 da 0c 3d 21 e6 ed 3d 93 1f 84 3d 14 86 c0 3d
       0.03438814 0.11616159 0.06451335 0.094005734
000160 ad 12 02 be e1 02 37 3d b1 ca a7 bd 96 05 90 3d
       -0.12702437 0.04468048 -0.08192957 0.070323154
000170 97 1c 27 3e b5 c2 31 be 2c 3a cc bc 89 da 50 3e
       0.163195 -0.17359431 -0.024930082 0.20395865
000180 6e 2a aa bd 98 c8 4e bd 17 17 0f be 03 b9 85 3d
       -0.08308874 -0.05048427 -0.13973652 0.06529429
000190 c8 6e 53 3e b2 01 5c 3e 8c a3 49 3e 8e de 34 be
       0.20647728 0.21485022 0.19691294 -0.17663023
0001a0 da 58 16 be 83 b3 18 3e 67 6d 9a bd 51 e2 e0 bc
       -0.14682332 0.14912228 -0.07540398 -0.027451666
0001b0 64 b4 c0 bd 2b 56 0f be 1a 59 e5 3d a5 2b f7 3d
       -0.09409407 -0.13997714 0.111986354 0.120688714
0001c0 56 fe 18 3e 59 d6 97 3d 2b 9b 20 bc 22 bf e8 3c
       0.14940771 0.074139304 -0.00980262 0.028411452
0001d0 63 62 c8 bd f6 1a c2 3c 09 6f 82 3d bb 09 87 bc
       -0.09784391 0.023694497 0.063688345 -0.016484132
0001e0 49 07 eb bc 72 14 e6 bd 6a 23 5a 3c 1a 44 08 3e
       -0.028689997 -0.112343684 0.013314107 0.13307229
0001f0 e2 8e 85 bd 5f 03 97 bd d6 b0 cb 3c 2c 2c 08 be
       -0.06521393 -0.0737369 0.024864595 -0.132981
000200 5f a1 80 bc 4b be c8 bd 0a ec 4e 3d b1 62 e7 3b
       -0.015701948 -0.098019205 0.050518073 0.0070613255
000210 7a 45 3d 3e 2f c0 ed 3d 6e 7f 1d 3e 80 07 1a 3e
       0.18483534 0.11608922 0.15380642 0.15041924
000220 cd 18 8a bb 9d f1 d1 3d 4c fe 01 be 6c 20 eb bd
       -0.0042143823 0.10251162 -0.12694663 -0.11480793
000230 d2 e3 27 bd ae 2d 6c 3d 25 bd cd bd 7c d0 15 3d
       -0.04098875 0.05766075 -0.10045842 0.03657578
000240 06 f0 06 3e 18 91 36 be f0 38 0d 3d b6 4c 72 bd
       0.13177499 -0.17828786 0.034478128 -0.05915519
000250 a0 80 fe bc 39 1a a3 bd
       -0.031067193 -0.07963986

conv1.bias f4 [6]
000000 c3 e7 2a 3e e1 a7 db bc 6d 2d 38 be 5d aa 2f 3e
       0.16689973 -0.02681345 -0.17986079 0.17154832
000010 b0 6b b7 bd 64 3b 33 be
       -0.08956087 -0.17503124

conv2.weight f4 [16, 6, 5, 5]
000000 91 b2 05 bd 1b 04 60 3d 77 78 09 3d d5 2c 60 bd
       -0.032640997 0.054691415 0.03356215 -0.054730255
000010 61 63 d8 3c a1 63 3c 3c 6e c3 a0 3b 84 d4 c0 3c
       0.026414575 0.011498363 0.0049061095 0.023538835
000020 f5 af 46 bc f0 bc a3 bb f1 67 82 3d 8c 46 7a 3d
       -0.012126912 -0.0049968883 0.063674815 0.061102435
000030 9a 4f a6 bc 0a d4 a4 3d 94 a2 2f bd 66 ed 85 bc
       -0.020301629 0.08048256 -0.042879656 -0.016348552
000040 bb 51 21 bc 9a 0f 84 bd 73 20 b9 3b 8e 6e 00 3d
       -0.009846146 -0.06448288 0.00564962 0.031355433
000050 1d 3b b0 bc 3e f1 21 3a ea 16 50 3d e2 71 b2 3d
       -0.021512562 0.00061776105 0.050803103 0.08713128
000060 03 0d b1 3d 73 2c 69 bd 67 23 78 bd 57 01 4d 3c
       0.0864506 -0.056927156 -0.060580637 0.0125125265
000070 56 9a ab bd 48 a7 3f 3c 0f ab f7 bc ea d6 4a bd
       -0.083790466 0.011697598 -0.030232934 -0.049521364
000080 83 5d a5 3d 42 85 9c 3c b5 12 f9 3c 6b 75 77 bc
       0.080744766 0.019106511 0.030404428 -0.015103678
000090 11 b2 94 3d c6 a7 90 3d de 4d 12 3d 18 03 e3 bb
       0.07260526 0.0706325 0.03571879 -0.006927859
0000a0 7e b9 2d 3d 78 6a 86 3d 1c ce 9f 3d 06 90 57 3d
       0.042413227 0.06563276 0.07802984 0.052627586
0000b0 56 c4 13 3d f3 db 56 3d 46 db 88 bc c3 e0 86 bd
       0.036075912 0.052455854 -0.01670612 -0.06585839
0000c0 84 3d ad bd 39 d5 ad bd aa 8c e9 3c cf 3c 8d 3c
       -0.08458999 -0.084879346 0.028509457 0.01724091
0000d0 76 d5 81 bd 22 3f bd b9 af fa 5d bd b7 7b 27 3d
       -0.063395426 -0.00036095927 -0.05419415 0.040889468
0000e0 72 06 64 bd 9b 21 93 3d db 85 31 3c 99 09 9f 3d
       -0.05567021 0.07184144 0.010835136 0.077655025
0000f0 15 b9 0d 3d 37 96 69 bd 2f 8d 9b 3d aa da 7a 3d
       0.034600336 -0.05702802 0.07595288 0.06124369
000100 c2 cd cf 3c 94 9a ce bc 3b 21 1d 3d 51 9c 93 bd
       0.025366668 -0.025220193 0.03836177 -0.07207549
000110 5e b4 6b bd 20 bf 01 bd b9 f6 21 3d 93 f9 ba bc
       -0.05754506 -0.03167641 0.039541934 -0.022824084
000120 85 37 4d bd 4f fa 0a 3d c1 f4 8c 3d b6 7f 04 bd
       -0.050101776 0.03393012 0.068826206 -0.032348357
000130 af 92 a8 bc ef 3c ec 3c d0 bf e6 3c 2b 38 a6 3c
       -0.020577757 0.02883765 0.028167635 0.020290455
000140 22 ce a6 3d f5 bb 8d bd 7f 3f 5e bd 4b 52 08 3d
       0.081447855 -0.069206156 -0.054259773 0.033281606
000150 e9 8a a4 3d cf 69 a7 bd f2 18 ce bc b7 39 3e bc
       0.080343075 -0.08174478 -0.02515838 -0.01161044
000160 53 44 85 3b d0 3e 82 3d ac bd bd bb 68 72 9b bc
       0.004066983 0.06359637 -0.005790433 -0.018975452
000170 f1 7c 7b bd 5a dd a5 3d ca e4 b0 3d 43 59 f6 bb
       -0.06139845 0.0809886 0.08637388 -0.007517965
000180 fd a4 51 bd f3 fb bd bc 4b 3e 23 bc 74 fd 84 bd
       -0.051182736 -0.023191428 -0.009963582 -0.06493655
000190 ff 7c 63 3d f1 54 86 3b fd 81 a5 bd bb fa 44 bd
       0.055539127 0.0040994813 -0.08081434 -0.048090678
0001a0 3a d0 1f 3d 25 cb 20 bd cc 1b 42 3d e0 31 fe bc
       0.03901694 -0.039256234 0.04738979 -0.031029642
0001b0 30 c0 54 bd cc a1 5c bd e7 ad 6e bc 2e bc 65 3d
       -0.051941097 -0.05386524 -0.014567829 0.056087665
0001c0 2d bf 61 bd 27 0b 90 3d 00 90 c9 3c 0f 25 1a 3d
       -0.05511396 0.07033377 0.024604797 0.037632998
0001d0 84 a9 8c 3d 39 eb 66 bd c2 66 81 3d 47 0f 8b bc
       0.0686827 -0.05637667 0.063184276 -0.016975058
0001e0 21 a3 80 bc 59 bd 7c bd 3b bd 83 bc e1 91 e0 bc
       -0.015702786 -0.061704013 -0.016081443 -0.02741331
0001f0 0c 63 18 3d 3e 87 c1 bc 78 06 6b bd 74 3c a9 bd
       0.037203833 -0.023624059 -0.057379216 -0.08263484
000200 ce f8 97 3b 42 40 65 3d 8a 97 83 bd 1b ee 13 3d
       0.004637814 0.055969484 -0.06425388 0.036115747
000210 67 ff bd bd 03 2f 7e bd 3d 25 16 bc ba 1a ba ba
       -0.0927723 -0.062056553 -0.009164152 -0.0014198639
000220 58 8a 4a bb c0 3d 80 3d 4a b5 b7 3a ac 25 91 3d
       -0.0030905213 0.06261778 0.001401582 0.070872635
000230 0c 57 84 3d 34 46 80 3d 5f a9 7a 3b 3a 06 55 3d
       0.064619154 0.0626339 0.0038247926 0.05200789
000240 ad 81 b0 ba e8 71 46 bb 9b 9c 7c 3c 55 c2 83 3d
       -0.0013466381 -0.0030280296 0.015418197 0.0643355
000250 70 20 9c 3c f5 a6 2d bc 01 06 19 bd c8 62 59 3d
       0.019058436 -0.010598888 -0.03735924 0.05307272
000260 e0 91 89 bd 7d 56 f3 bc ef 96 91 3d 4b bc 6a bb
       -0.067172766 -0.029704327 0.071088664 -0.0035817798
000270 29 11 a0 3d 1e f3 db 3c 0a 1d b7 3c ea 03 fc bc
       0.07815773 0.026849326 0.022352714 -0.030763585
000280 a4 62 29 bd 9a 14 2d bd a4 02 da 3c 09 37 52 3d
       -0.041353837 -0.042255975 0.026612587 0.051322017
000290 31 73 7d 3d cb 71 50 bd 09 9a be 3c a6 50 cd bb
       0.061877433 -0.05088977 0.023266809 -0.0062657176
0002a0 10 fc 06 3c 63 c3 25 3c 6c b2 98 3d ae 30 22 3d
       0.008238807 0.010117385 0.07455906 0.039597206
0002b0 48 4a 55 bd 05 ab 13 bd 24 34 0c bd 5d e3 2b bd
       -0.052072793 -0.03605177 -0.034229413 -0.041964877
0002c0 dd ef 82 3d d4 19 54 bc e4 5b 99 bd 5e 7d 83 bd
       0.063934065 -0.012945611 -0.0748823 -0.06420396
0002d0 73 f5 19 bd cd 6b 0f bd 06 ee 99 3d 9d fe 6f bd
       -0.037587594 -0.035014916 0.075161025 -0.058592428
0002e0 a1 69 f1 3c 77 ff 44 bc 22 81 8e bc 5a 0e 1a bd
       0.029469313 -0.012023798 -0.01739556 -0.037611343
0002f0 2e 2a 8d bd ef da 34 bd 04 e4 02 3d b5 51 0e 3d
       -0.06892811 -0.044154104 0.031955734 0.03474589
000300 c1 61 e4 3b 98 8f fc 3c 2a 3a 6b 3c 73 f1 8c bc
       0.006969661 0.03083019 0.014357129 -0.017204976
000310 38 16 87 bd 20 ee a4 bd 7e 12 96 bd 1c 08 f2 bc
       -0.06596035 -0.08053231 -0.07327746 -0.029544882
000320 af 47 62 3d 1e 87 50 ba 10 03 11 bd 38 0a 1d bd
       0.055244144 -0.00079547043 -0.03540331 -0.038339823
000330 7e 43 b2 bc ab 97 00 bd cb ea 63 bd b0 72 fb bc
       -0.021760698 -0.03139464 -0.055643838 -0.030694336
000340 8f 81 78 3d 2b e7 58 bd 0a 81 2d 3d e5 d3 a3 3d
       0.06067043 -0.052954834 0.04235939 0.079994
000350 30 f4 49 3d dd 30 c7 bc b2 0f cf bc bc 53 d3 bc
       0.04930514 -0.024315292 -0.025276039 -0.025796764
000360 7f 8f 2c 3b 2a 22 9f bd a5 8b 94 bd 24 bb 6d 3d
       0.0026330648 -0.07770188 -0.072531976 0.0580398
000370 19 ca 80 bc 94 93 3f 3d 68 74 7c 3d dd af 26 3c
       -0.015721368 0.0467716 0.06163445 0.010173765
000380 3e d6 48 bd 5c de 40 bd bd 14 90 3c ee d7 ab bc
       -0.049032442 -0.04708706 0.017588014 -0.020976987
000390 c2 ee 12 3d 1a 80 75 bd 38 ed b5 3c ff e3 3b bd
       0.03587223 -0.05993662 0.022207841 -0.04587173
0003a0 b2 65 92 3d 0a bb 28 3d 77 9d 81 bd ef 8c 02 bd
       0.07148303 0.041194 -0.06328862 -0.031872686
0003b0 f1 43 7d 3c 49 10 5c bd b5 76 fc bc b6 39 8f bd
       0.015458093 -0.05372647 -0.030818323 -0.06993429
0003c0 d5 3e 15 3c a6 9a 6c bd 14 aa a8 3d ab 87 5c 3c
       0.009109219 -0.05776467 0.08235565 0.01346008
0003d0 2d a8 f6 3b ab bc b4 bc e2 69 54 bd 65 74 91 3d
       0.0075273723 -0.02206262 -0.05185879 0.071022786
0003e0 03 41 0b bd 3f 4d 4c 3d df fd 8b 3d 26 5f a5 3d
       -0.033997547 0.049878355 0.068355314 0.08074789
0003f0 30 0c 63 bd dc 08 3f 3d 7f 9e cb bc 9a f7 32 3d
       -0.055431545 0.04663931 -0.02485585 0.043693163

conv2.bias f4 [16]
000000 6a f8 13 bd a0 5d 4f bd 12 8a 97 3d fd 05 78 bd
       -0.036125578 -0.050626397 0.07399382 -0.060552586
000010 2a 68 ab 3d 26 b6 2c bd 7e 08 e7 bb 68 50 41 3d
       0.08369477 -0.042165898 -0.007050573 0.047195822
000020 d3 5e 0e 3d cb cc b0 3a b1 a2 4a 3c e2 e9 68 bb
       0.0347584 0.0013488767 0.01236789 -0.0035539796
000030 ae e9 ab 3d 27 b3 66 3c 08 00 69 bb e9 99 29 3d
       0.0839418 0.014080799 -0.0035552997 0.041406546

fc1.weight f4 [120, 256]
000000 c0 ac c3 3b 42 e5 0d bd 6b d6 86 3c 11 ac 24 bd
       0.005971521 -0.034642465 0.016459664 -0.040203158
000010 11 56 c3 bc 3f 2d 39 3d ea c6 aa bc a0 3f aa bc
       -0.02384475 0.045209166 -0.020846803 -0.020782292
000020 04 bf 25 3d ef 4e cb 3b 24 e4 22 bc 65 d5 00 bd
       0.04046537 0.006204478 -0.009942088 -0.03145351
000030 5d 23 0d 3c 5a c7 ac 3c a7 a9 ca bc a2 61 a7 bc
       0.008614388 0.021091152 -0.0247391 -0.020432297
000040 1a 87 15 3d 90 23 00 3c 0d 48 c8 3c 48 f7 58 3d
       0.036505796 0.007820979 0.024448419 0.0529702
000050 78 fc 36 3d ba 17 c2 bc 2d 3e bb 3c 50 14 b1 3b
       0.044674367 -0.023692954 0.022856796 0.0054040328
000060 16 ef 31 bd 87 7d 1c bc 5a a4 67 bc 81 e7 2d 3d
       -0.0434409 -0.009551412 -0.014138306 0.042457107
000070 8b d8 d1 ba 2a 85 59 3d de 94 9d bb bc a1 aa 3b
       -0.0016009969 0.05310551 -0.004809006 0.0052072685
000080 30 b4 7e 3c 73 92 38 3d 5a 44 81 3c bc 86 cc 3c
       0.01554589 0.04506154 0.015779663 0.02496659
000090 9f 5c 75 3d 89 68 17 bd 72 46 85 3d 13 df 10 3d
       0.059902783 -0.036964927 0.06507577 0.03536899
0000a0 0a 4c 11 bd b3 06 34 bd 58 f4 85 3d d7 b2 91 bc
       -0.035472907 -0.0439517 0.065407455 -0.017785473
0000b0 8b bd 2e 3d e8 53 ee 3b 87 8d 05 bd 6d c9 5a bd
       0.04266123 0.007273186 -0.032605674 -0.05341475
0000c0 6b 12 20 3b d8 ed 25 3d 06 5c 18 3d 6d ac a6 bc
       0.002442504 0.04051003 0.037197135 -0.02034589
0000d0 b7 be 45 bd a0 53 e4 bc 65 60 37 3d 11 74 bb 3c
       -0.048277583 -0.027871907 0.044769663 0.022882493
0000e0 26 46 67 bd 85 65 9c bc 0c 85 ba 3c c2 08 03 3d
       -0.056463383 -0.019091377 0.02276852 0.031990774
0000f0 d6 18 a8 bc bb ee 5c 3d 2e 18 06 bc ca eb 77 3c
       -0.020519655 0.05393861 -0.008184476 0.0151319
000100 f8 dd a1 3b 8c 10 14 bd a8 b4 55 bd 34 d5 59 3d
       0.004939791 -0.036148593 -0.05217424 0.053181842
000110 d2 a1 83 3d f2 65 14 3d fd d8 86 3c 75 2a ec bc
       0.06427349 0.036230035 0.01646089 -0.028828839
000120 5d 0f c5 bc 3d 74 66 3d fd 07 d1 bc 81 86 8a bc
       -0.024055177 0.056263197 -0.025516504 -0.01690984
000130 78 97 5c bd b5 aa 4f 3d 19 4b 35 bd e8 ee 89 3c
       -0.05385539 0.05069991 -0.04426107 0.016837552
000140 53 79 80 bb 25 48 f0 3c 05 a6 14 bd e0 4a 40 bc
       -0.003920713 0.029331276 -0.03629114 -0.011736602
000150 b8 68 05 3c 8d 06 14 3d b4 7c 2e 3d 58 95 07 bd
       0.008142643 0.03613906 0.042599395 -0.03310141
000160 8d b8 8a bc 15 c9 57 bd 23 48 68 3c f9 1d 7a 3b
       -0.016933704 -0.052682 0.014177355 0.0038164838
000170 b0 9c 0a bd e4 18 67 3d a0 85 24 3d 41 0d 4d 3d
       -0.033840835 0.056420222 0.040166497 0.050061468
000180 8b aa 96 bc f1 8a 61 bd f9 80 81 3c 4b a9 29 bc
       -0.018391868 -0.055064145 0.01580857 -0.010355304
000190 2d 9d 82 3d b9 2c 07 bc 16 b4 29 bc 47 e5 22 3d
       0.06377635 -0.008250409 -0.010357877 0.039769437
0001a0 56 f7 51 bc a1 ce 08 3d 14 ad 35 bd ff ef 65 bc
       -0.012815317 0.03340018 -0.044354513 -0.01403427
0001b0 b2 ba 2a 3d 9c 77 05 bd 08 81 4f 3d d0 bf 1b bd
       0.041681953 -0.03258477 0.050660163 -0.038024724
0001c0 8f ac 5f bd 49 8b 36 3d ff 05 88 3d 48 28 93 3c
       -0.054607924 0.044566426 0.06641769 0.017963544
0001d0 98 58 e7 bc 06 84 15 bd a5 3a 35 3d f2 76 c7 ba
       -0.028240487 -0.03650286 0.04424538 -0.0015217944
0001e0 59 52 80 bc dc 0f 45 3d 71 f1 92 3c 6c 70 1e bd
       -0.015664266 0.048110828 0.017937394 -0.038681433
0001f0 b0 cd 07 bd 71 4f 89 3d e6 d6 b7 3c 73 0b 41 bd
       -0.033155143 0.06704605 0.022441339 -0.04713006
000200 f1 1a 11 3d 56 8c 83 3c 39 e2 32 3d 0f e5 26 3d
       0.035426084 0.016058128 0.043672774 0.04074579
000210 34 83 b0 bc 3b a0 ad bc 6e 1d 76 bd a2 06 5c 3d
       -0.021546938 -0.021194568 -0.06008666 0.053717263
000220 1e e3 6e 3d 0b 0f 04 bd 2c 03 4e 3d 52 73 57 bd
       0.058322065 -0.03224091 0.050295994 -0.052600212
000230 e9 8a 1e bc b7 b7 15 bd f7 55 b2 bc df 94 4b 3d
       -0.009676673 -0.036552157 -0.021769507 0.04970252
000240 aa bc 60 bd 29 3c a0 bc 59 52 3a bd b5 c1 1a 3d
       -0.054867424 -0.019559937 -0.04548869 0.03778239
000250 30 1d cc 3c 16 bd 38 3d 27 fb be 3c bf 77 56 bd
       0.024916261 0.0451022 0.023313118 -0.052360293
000260 83 79 3b bd 6b 69 53 bb d8 d0 29 3d 19 e9 9f bc
       -0.04577018 -0.003225888 0.041458935 -0.01952033
000270 e4 23 9d 3c 8c b2 3e 3d 1b 89 e6 bc fb c4 e8 3c
       0.019182153 0.046556994 -0.028141549 0.02841424
000280 e4 6f 1a 3d e2 ce 6e 3c fd 5a 52 bd 50 f9 26 bd
       0.037704363 0.014575692 -0.051356304 -0.040765107
000290 af ff e0 bc 95 8d 80 3d 59 76 20 bd 86 17 4e 3d
       -0.02746567 0.06277005 -0.039175365 0.050315402
0002a0 d7 a4 b2 bb 9d e5 6a 3b 63 d9 04 3d 85 6e 89 3d
       -0.0054517793 0.0035842427 0.03243388 0.06710533
0002b0 d8 ac 87 3d 7a 54 c9 3c 45 89 a9 3a e3 5c 53 3d
       0.06624764 0.024576414 0.0012934586 0.051602256
0002c0 2c d5 27 bc dc 56 bf bc ff a9 77 bd 73 66 98 3c
       -0.010243695 -0.023356847 -0.060464855 0.01860354
0002d0 33 9f 33 bd 50 70 2e 3c 70 32 87 bc ad 8a 5c 3d
       -0.043852996 0.010646895 -0.016503543 0.05384319
0002e0 42 e0 04 3c f8 3d 65 3c 40 11 15 bd e5 d9 a9 bc
       0.008110108 0.013991825 -0.036393404 -0.020733783
0002f0 a2 4e 45 3c d2 37 b3 bc fc ee 49 bd 9d 9b 21 bd
       0.012042673 -0.021877203 -0.04930018 -0.039455045
000300 37 c3 90 bc 83 ce 07 bd a8 00 0e bd b8 c5 dd 3c
       -0.01767121 -0.03315593 -0.034668595 0.027071819
000310 82 88 40 3d 9c 59 86 3d c9 47 1a bd 79 a4 8e 3d
       0.047005184 0.065600604 -0.037666116 0.069649644
000320 e1 7d 03 3d 8e b1 f7 bc f7 66 6e bd 26 26 98 3c
       0.03210247 -0.030236032 -0.058203664 0.018572878
000330 9f 41 98 3b 87 16 37 bc 0d ff 33 bd 44 40 ee b7
       0.0046464945 -0.0111748045 -0.043944407 -2.8401737e-05
000340 80 e3 e3 bc 91 de 54 bd 39 ab 78 3d d2 61 75 bd
       -0.027818441 -0.05197007 0.060710166 -0.05990774
000350 2a 11 03 bd ce bd 79 3c 4a 97 3a 3c eb d1 23 bd
       -0.03199879 0.015243007 0.011388609 -0.039995115
000360 52 ba 3f bd 2b 88 45 bc dd ac 16 bd 7e f1 78 3b
       -0.04680855 -0.012056391 -0.03678595 0.0037985737
000370 26 1d 09 3d 76 fe 26 3d 91 a1 10 bd 01 75 4e 3c
       0.033475064 0.040770017 -0.03531033 0.012601138
000380 d4 b2 25 3d b0 69 46 3d f2 b6 42 3c 5c 63 de 3c
       0.040453747 0.048440635 0.011884438 0.027146988
000390 28 0f 73 3d 71 21 55 3d 9b 8b a0 bc 31 0a 50 bb
       0.059340626 0.052033845 -0.01959782 -0.0031744356
0003a0 f7 8f 0a bd 6d c4 c1 bc b9 bc 2b 3d 0d a1 16 bd
       -0.0338287 -0.023653233 0.041928027 -0.036774684
0003b0 96 f1 81 3d 16 e9 09 bd c2 5f 33 3c 49 e2 14 bd
       0.06344907 -0.033669554 0.010948123 -0.036348615
0003c0 3b 57 31 bb 65 b9 94 bc c5 7f 80 3b fb eb 62 3d
       -0.002706005 -0.01815481 0.0039214813 0.05540083
0003d0 db ce fd 3c 7c cd 50 bd 2d 0f f4 bc 15 f8 31 3d
       0.030982425 -0.050977215 -0.029792393 0.04344948
0003e0 ee 42 6f 3d 74 92 b3 3c 43 41 ff 3c c2 cc 18 3a
       0.05841344 0.02192042 0.031159049 0.0005828851
0003f0 9d 8a 17 bc 5e 02 1b 3d 83 99 3d bd 69 0e e4 bc
       -0.009249357 0.037844054 -0.04628898 -0.027838903

fc1.bias f4 [120]
000000 9a 28 06 bd 31 cb c1 bc ac a7 fb bc 7a d7 53 bc
       -0.032753564 -0.02365646 -0.0307196 -0.012929792
000010 ae 8e 1d bd 9d 7f cf 3c 34 df 87 bb 68 13 f5 3b
       -0.038466148 0.025329405 -0.004146481 0.00747912
000020 13 91 4d 3d 2d 62 11 3d 61 57 9b 3b 85 c8 2d 3d
       0.05018718 0.03549402 0.004740641 0.04242756
000030 f4 a3 7c 3d cc 3b 80 3c f6 f7 51 3c a7 26 3b 3c
       0.061679795 0.015653513 0.012815466 0.01142279
000040 83 84 54 bd 6e 42 c9 3c eb df ae bc 76 12 0c 3c
       -0.051884186 0.024567809 -0.021347007 0.008549323
000050 c1 31 71 bd ed c4 43 3d 39 df 1a 3d 39 1e 41 3c
       -0.05888534 0.047795225 0.037810538 0.011786991
000060 88 a9 2c 3c a4 2c 14 3c df aa 18 bd e8 7d 1e bd
       0.010538466 0.009043846 -0.03727233 -0.038694292
000070 bc fc 44 bc 5f 0f c4 bc ae 13 51 bd c0 01 a5 3c
       -0.012023147 -0.02393311 -0.05104416 0.020142436
000080 19 72 a4 bc 84 ff 41 bd eb fa 44 3d 7a ce 63 3d
       -0.020073937 -0.04736282 0.048090857 0.055616833
000090 8f 70 43 3d 66 55 51 3d b1 e7 9e bc 40 b7 4a bd
       0.047714766 0.051106833 -0.019397588 -0.049491167
0000a0 56 6c 40 3d 3c a9 11 bd ba 45 5c bc b9 21 66 3d
       0.046978317 -0.035561785 -0.0134443585 0.056184504
0000b0 d2 ae 28 bd 76 40 26 3d f9 eb 6c bd 3f 89 35 bd
       -0.041182347 0.04058882 -0.05784223 -0.04432034
0000c0 84 e1 37 bd 35 6d 9a bc d5 34 45 bd fc 28 00 bd
       -0.044892803 -0.018850902 -0.048146088 -0.031289086
0000d0 0c 36 83 bc 2a f1 16 bb e9 01 46 bb 4c 09 19 3c
       -0.016016982 -0.0023031929 -0.003021354 0.009340595
0000e0 e7 c7 de ba ff 79 30 3d 44 e1 c5 bc a2 05 0c 3d
       -0.0016996831 0.043085095 -0.024155267 0.03418506
0000f0 12 19 c7 ba c3 8c f8 bc 57 c6 d6 bc 64 d2 68 bd
       -0.0015189967 -0.030340558 -0.026217623 -0.05684127
000100 1f 1f 2f bd ff fa 5e bd 86 1d ca 3c aa 89 52 bc
       -0.04275429 -0.054438587 0.024672281 -0.0128502045
000110 40 3d 88 3c fe 0a 33 3d 23 f5 65 3d e6 e8 c2 3c
       0.016630769 0.043711655 0.056141984 0.023792695
000120 db bc 3a bd 38 8a 08 bd 2f 0c 39 3b 79 dc 88 3b
       -0.045590263 -0.03333494 0.0028236022 0.004176673
000130 e6 46 c7 bc fb c0 a0 3c 14 3a 9e 3c 30 c6 df 3c
       -0.0243258 0.01962327 0.019314803 0.027316183
000140 09 98 0c 3d b8 6a 9f bc 07 a8 93 3c e5 57 9b bc
       0.03432468 -0.019460067 0.018024458 -0.01896281
000150 72 9f 4d bc a8 b2 26 bd 5d 28 9d bb 66 87 fd 3c
       -0.012550222 -0.040697724 -0.0047960714 0.030948352
000160 53 c4 55 3d 2a 5b 55 bd f4 cf 48 3c 4e 1e 01 3d
       0.052189182 -0.052088894 0.012256611 0.03152304
000170 dc 18 85 b8 6d 57 6a bc be de d3 bc 0e 15 7e bc
       -6.3465646e-05 -0.0143030705 -0.025863048 -0.0155079495
000180 01 29 58 3c 80 66 77 3b 79 ff 79 3d e8 cb a2 bc
       0.01319337 0.0037750304 0.061034653 -0.01987262
000190 a5 c4 b1 bc 76 1e 5f ba 57 94 1f 3d d5 85 43 bd
       -0.021700213 -0.0008511314 0.038959827 -0.047735054
0001a0 03 04 46 3c f2 a1 db 3c 83 45 8a 3d 23 93 75 bd
       0.012085917 0.02681062 0.067515396 -0.059954774
0001b0 c6 a4 4d bd 90 0a 98 bb 42 6a 07 bc 7a 57 d9 3c
       -0.05020597 -0.004639931 -0.00826508 0.02653097
0001c0 a5 d2 67 bd f1 35 30 bd 99 60 52 3d 3f 69 24 bd
       -0.05659737 -0.043020193 0.051361654 -0.040139433
0001d0 5a 2e 1e 3c c6 6a 76 bb d7 67 f6 bb 4a 70 83 3d
       0.009654606 -0.0037600263 -0.007519703 0.06417902

fc2.weight f4 [84, 120]
000000 03 b5 8d bc 20 2e 89 3d 0e c6 b6 3d f5 7e 7e 3d
       -0.017298227 0.06698251 0.08924495 0.062132794
000010 73 7e 8f 3d 56 32 7e bd a7 de c6 bc 1a 0f 2a bc
       0.0700654 -0.062059723 -0.02427609 -0.010379577
000020 ae a2 99 bc 9f 58 a4 3d 4c f7 20 3d 1b 1d 25 3d
       -0.01875433 0.08024716 0.03929834 0.04031096
000030 36 7d 8b 3d b4 cb 64 3d 48 39 6f bd d1 00 a2 3d
       0.068109915 0.05585833 -0.058404237 0.07910312
000040 44 fd 2f bd ba e3 b0 bc 41 3e 80 bd 80 48 f9 3c
       -0.042966142 -0.021592963 -0.06261874 0.030430079
000050 37 77 71 3d c5 f9 bc bc 0a 06 54 bd 87 b6 87 3c
       0.058951583 -0.023068318 -0.05176357 0.016566528
000060 0a c7 ab 3d 23 b8 8b bd 73 c2 3e bd a4 8f 45 3d
       0.08387573 -0.06822231 -0.04657216 0.04823269
000070 e7 6f aa bd e4 de b6 3d ae fa 8b bd e3 e8 81 3d
       -0.08322125 0.08929232 -0.06834923 0.06343248
000080 93 28 9e bd 4e 84 a3 bd d8 4a 8e 3d d3 2d d2 3b
       -0.07722583 -0.079842195 0.06947869 0.006414154
000090 d4 81 a6 3d 3a dd 85 bd 50 2f b5 3d 82 3d a9 bd
       0.081302315 -0.06536336 0.08846915 -0.08263685
0000a0 1d 9a b0 bd 5d d6 98 bd 08 68 91 3d 9c 92 7e bd
       -0.08623145 -0.074627616 0.070999205 -0.062151536
0000b0 69 58 3b bb bf b0 8a bd cd bc bb bd 09 b5 b2 bd
       -0.0028586632 -0.06771993 -0.0916687 -0.08725936
0000c0 80 42 a3 3d c5 c5 bf 3c 90 92 84 3d 8f 42 9b bd
       0.07971668 0.023409734 0.06473267 -0.075810544
0000d0 df b0 d1 bc 44 64 3d bd a6 6b cc bc ac 84 06 bd
       -0.025597034 -0.0462382 -0.024953675 -0.03284137
0000e0 21 ac 81 3d ba 21 71 bd db bf 26 3d 5b 57 76 bb
       0.06331659 -0.058870055 0.04071031 -0.003758869
0000f0 6f d8 7d bd da ab 7f 3d 8a da 35 3d c8 17 1e 3d
       -0.061973985 0.06241975 0.04439787 0.0385969
000100 63 53 44 3d 19 41 fd bc 2e 08 21 bc 4f d8 70 bd
       0.047931086 -0.03091483 -0.00982861 -0.058800038
000110 f3 cc a6 3d 63 da 55 bc 84 3b f0 3b 02 71 37 3d
       0.0814456 -0.013052556 0.0073313136 0.044785507
000120 4f f6 9c 3d bc 29 e9 3a 74 68 17 3d 85 7b ac bd
       0.07664167 0.0017788927 0.03696485 -0.08421997
000130 a1 d2 07 3d 17 88 5f bd 34 57 b2 3c 14 62 73 bd
       0.033159856 -0.054573145 0.021770097 -0.059419706
000140 2e 5e a7 3d 85 c5 2c bd 25 14 a0 bc 3a 2b 55 3d
       0.0817226 -0.042180557 -0.019540856 0.052043177
000150 9d 74 84 bd 2c 27 0c 3d f5 42 b8 bd 93 44 a7 bd
       -0.06467555 0.034217045 -0.08997146 -0.08167376
000160 8b 95 73 bd 07 cd cf bc de 5f a0 3d 22 38 6c bd
       -0.059468787 -0.02536632 0.07830785 -0.05767072
000170 fd e3 57 bd fc 96 9f bd 22 64 66 3d 2c 08 78 bd
       -0.05270766 -0.0779247 0.056247838 -0.06055467
000180 0f 8d 01 bd 17 7e 3a bd 00 34 f8 bc db f5 80 3d
       -0.031628665 -0.045530405 -0.030298233 0.06296893
000190 9d 96 6f bd 0a 47 46 bd 93 59 f4 3c 30 af 60 3d
       -0.058493245 -0.048407592 0.029827869 0.05485457
0001a0 50 90 6c bd 29 0a 9e bd 66 de 9d 3d 85 92 71 3d
       -0.057754815 -0.07716782 0.07708435 0.058977623
0001b0 96 27 66 bd df a2 ac 3d eb 4e b0 3d ee 76 bb bd
       -0.056190096 0.08429503 0.086088024 -0.091535434
0001c0 d0 ba 9e bd 3c 0b 24 bd 41 81 16 bd f0 fd 3b bd
       -0.077504754 -0.040049776 -0.03674436 -0.04589647
0001d0 01 ac 49 3c 67 d9 19 3c 39 31 68 bc c3 db 17 3d
       0.012309075 0.009390212 -0.014171892 0.037074815
0001e0 85 e2 5f 3d b9 e8 a3 3d d0 e5 6f bd 3c ad 81 bd
       0.054659385 0.08003373 -0.058568776 -0.0633187
0001f0 86 59 29 3d 73 e4 f8 bc 22 bd bf 3d 07 78 a2 bd
       0.04134514 -0.03038237 0.09362246 -0.0793305
000200 b3 40 9b bd 27 31 97 bc 4a 38 84 bd 79 c7 87 3d
       -0.075807 -0.018456055 -0.06456049 0.06629843
000210 20 25 62 bd 40 93 b9 bd 73 a8 d5 bc d4 12 32 3c
       -0.055211186 -0.09061289 -0.0260813 0.010868747
000220 a2 a4 ac bd b3 b5 39 3d 0c e1 95 3d a1 ce 98 bd
       -0.08429839 0.045339298 0.07318315 -0.07461286
000230 c3 fa 42 bc 73 0e 7e 3b d3 fc 12 bd 3e 9a b0 3b
       -0.011900607 0.0038765937 -0.035885643 0.005389481
000240 ac c3 55 bd 98 8d 95 3d 76 ed 6f 3b ce 74 39 3d
       -0.05218856 0.073023975 0.0036610044 0.04527741
000250 4b 93 6b 3d 39 f8 94 bd 93 b5 5c 3b da 8a 08 3c
       0.057513516 -0.07273907 0.0033677563 0.008333886
000260 dc eb cf bc 10 f8 95 3d 1b 9e 75 3d d4 63 a1 bd
       -0.025381021 0.07322705 0.059965234 -0.07880369
000270 c1 9d 2c bd 6a 59 8c bb 9d 07 60 3d 8c 9f 74 3d
       -0.042142633 -0.00428312 0.05469476 0.05972247
000280 8f 37 68 bd b2 84 95 bd 29 a2 6d bd ce 7d 46 3d
       -0.05669361 -0.073007 -0.058015976 0.04845982
000290 b5 9f 38 bd b2 1e c1 3d 4d fe 9e bd 2c bb af 3d
       -0.045074183 0.09429683 -0.07763348 0.08580622
0002a0 76 f8 14 3b 00 65 67 bd 29 32 94 bd f1 0a d3 3c
       0.0022731102 -0.056492805 -0.0723613 0.025762053
0002b0 6b 81 b9 bc 6b 4b 9e bc da dc 3e 3d 68 7a 99 bd
       -0.02264472 -0.019323071 0.04659734 -0.0749405
0002c0 60 74 91 3d c0 a5 42 3d bd 6c c1 3c 7f 9a 34 3d
       0.07102275 0.047521353 0.02361142 0.04409265
0002d0 74 69 33 bc 9d 41 09 3d 34 93 02 bc 41 37 46 bd
       -0.010950435 0.03350984 -0.007969666 -0.048392538
0002e0 9e 86 c1 bd 08 ae 36 bd a5 30 73 3c 6a ec 74 bd
       -0.09449504 -0.044599563 0.014843141 -0.059795775
0002f0 fb 7e 50 3d 42 c2 63 3d 54 3a d7 bb 8f 28 ba bc
       0.050902348 0.05560518 -0.0065682326 -0.022724418
000300 b3 13 11 3d 67 8b 4f 3d c4 ba 6b bd 40 6d 74 bd
       0.035419177 0.050670054 -0.05755116 -0.0596745
000310 1a 31 91 3d 6e fb 80 3d f2 cf 32 3d b7 d1 41 3b
       0.070894435 0.062979564 0.043655343 0.0029574463
000320 9e 6c 22 bd 46 de 31 3c 55 8a 9c 3d 6b 26 1d 3d
       -0.039654367 0.010856217 0.07643572 0.038366716
000330 22 93 1c bd 06 cb 98 bd 96 8d 6b 3d 45 31 80 3d
       -0.038226254 -0.07460599 0.057508074 0.062593974
000340 72 ae 90 bb fa 60 ab bd 11 fa 9c bd 0b a8 c4 bd
       -0.0044153268 -0.08368106 -0.07664884 -0.09602364
000350 78 f1 23 bd 2a f6 ab bc 2e 10 61 bd 60 ae 0f b9
       -0.040025204 -0.020991404 -0.05494707 -0.00013702502
000360 63 49 94 3d c0 ce 96 bd 47 18 55 bd 18 51 4b bd
       0.0724056 -0.07363653 -0.052025106 -0.049637884
000370 e1 02 4b bd 50 3c 1d bd c3 cc 9d 3d f3 83 a3 3d
       -0.049563292 -0.038387597 0.07705071 0.07984152
000380 5b ab 33 3d 8f df a0 bc 34 c3 bb 3d 91 35 10 3d
       0.04386459 -0.019637851 0.091680914 0.035207335
000390 b9 63 e5 bc 9e a8 ba 3d 65 4a da 3c 73 1f 1c 3b
       -0.028001653 0.091141924 0.026646802 0.0023822456
0003a0 b1 8b 47 bc 98 1b 96 3d 22 8d f0 bc fc 0b 0c 3d
       -0.012179301 0.07329482 -0.029364172 0.034191117
0003b0 b8 53 cc 3d ea f6 b8 3d 35 e3 a0 3d 4a f8 da bb
       0.099769056 0.0903147 0.07855836 -0.0066824304
0003c0 df ec 35 bd f4 0c 41 bd 5f 59 57 3d 39 30 5a bd
       -0.04441535 -0.047131494 0.052575465 -0.053268645
0003d0 a2 c0 a2 bb 33 73 75 bd d7 12 59 3d 53 81 43 3d
       -0.0049668113 -0.059924316 0.052996483 0.047730755
0003e0 92 bd 71 3b 96 5f 40 3d 2b a5 fe 3b 26 e6 79 3c
       0.0036886674 0.046966158 0.0077711544 0.015252626
0003f0 94 80 90 bb 10 38 db 3c 9a cb a9 bd 46 b8 77 bd
       -0.004409859 0.026760131 -0.08290787 -0.06047847

fc2.bias f4 [84]
000000 bc b2 89 bc a1 cc 9d 3d e6 f2 72 3c f9 59 82 bd
       -0.01680886 0.077050455 0.014828419 -0.06364817
000010 5c f4 73 bd f2 61 a8 bd 7c 1b a6 bd 11 72 b0 3b
       -0.05955921 -0.082218066 -0.08110711 0.0053846915
000020 d3 56 18 3d 22 07 49 bd 16 40 8d bd 81 94 b5 3d
       0.037192177 -0.049079068 -0.06896989 0.088662155
000030 7c 6f 7f 3d 25 c7 80 3d 62 39 85 3d 24 a8 77 bd
       0.06236218 0.06287984 0.065050855 -0.060463086
000040 18 41 0e 3d d0 79 96 bd 27 2d 41 3d c6 15 d5 3c
       0.034730047 -0.07347453 0.0471622 0.026011359
000050 6e 98 29 bc d8 11 60 bd d3 8a 5a 3d c2 7a 95 3d
       -0.0103512835 -0.054704517 0.05335505 0.07298805
000060 e0 5b 2f bd 98 76 c4 3c c2 fe 87 bd 6f 79 e1 3c
       -0.04281223 0.023982331 -0.06640388 0.027523724
000070 7b bd ae 3c e5 83 32 3d 97 e6 dd 3c b2 5e 6b bd
       0.021330586 0.043582816 0.027087493 -0.057463355
000080 f9 1c e4 3c eb 42 1c 3b 55 14 a5 3b 7c 21 ac bd
       0.027845846 0.0023843597 0.005037824 -0.08404824
000090 24 6f 52 3d ba e5 c3 3c 53 e5 33 bd ad 56 94 bc
       0.051375523 0.023913253 -0.043919872 -0.018107736
0000a0 f1 3f 46 bd db ad 92 3d 48 7f ae 3d 2b 9a a2 3d
       -0.048400823 0.071620665 0.08520371 0.079395615
0000b0 ad 7a 0a 3d 0d 45 28 bd 06 f0 5a bd ce e1 5c bd
       0.0338084 -0.041081477 -0.05345156 -0.05392628
0000c0 bb 82 d3 bc 6e 33 74 3d a6 3f 14 bd fa 4a 33 bd
       -0.025819173 0.05961936 -0.036193512 -0.043772675
0000d0 ab 39 93 3d 7c 0b 4a bd e7 0f c8 3b 96 ab 7d bd
       0.07188734 -0.04932736 0.0061054113 -0.061931215
0000e0 c5 d3 5c bb 11 5c 4e 3d 4d ef 11 bc c7 da 4e bd
       -0.003369556 0.05038077 -0.008907151 -0.05050161
0000f0 02 e7 70 bc 48 27 96 bc 48 fe b0 bd 30 58 93 3d
       -0.014703514 -0.018329278 -0.0864225 0.07194555
000100 0c 11 a6 bb 13 34 36 bd 48 f1 a5 bd a5 0b 79 bd
       -0.00506795 -0.044483256 -0.08102661 -0.06080212
000110 16 b9 92 bd 4c f8 2b bc 3f 55 9f 3d b6 dd 5a bd
       -0.071642086 -0.01049621 0.07779931 -0.053434096
000120 cd d5 8c bd d7 2d 96 bd 16 50 09 3d 76 22 56 3d
       -0.06876717 -0.07332962 0.03352364 0.05227896
000130 b0 d2 94 bd 09 e5 80 3c 4d 75 9a bc e2 71 27 3d
       -0.07266748 0.015734212 -0.018854761 0.04088009
000140 7b f6 08 bc 5f ef b0 bd f5 8c b4 3d 8d f5 28 bc
       -0.008359547 -0.086394064 0.08815948 -0.01031245

fc3.weight f4 [10, 84]
000000 ff db 86 bd 6f 6a 8f 3d c2 36 cf bd 96 1c ae 3c
       -0.0658493 0.070027225 -0.10117866 0.021253865
000010 4e ac 9a 3d 6d 82 74 bd d8 d7 94 bd 5a 91 f6 bd
       0.07552396 -0.059694696 -0.072677314 -0.12039442
000020 8c c4 ac 3d c6 70 9c 3d ab 92 c1 bd 45 6d 17 3c
       0.08435926 0.07638697 -0.09451803 0.0092423605
000030 00 b9 d8 3b 15 73 60 bd 05 f2 f8 3b 48 92 b2 3b
       0.0066138506 -0.05479725 0.0075972104 0.005449567
000040 06 4b ae bd 7b 2e e3 3c a6 5a 3b bc cc 4d 4c 3d
       -0.08510403 0.027732125 -0.0114351865 0.04987888
000050 e1 5e 38 3d 7f 46 3c bc 23 eb 70 3d f3 0b df bd
       0.04501236 -0.011491417 0.058817994 -0.10890951
000060 f0 f7 1c 3d b4 1a 04 bd 5d f3 57 bd 3e ab a6 bd
       0.03832239 -0.03225203 -0.052722324 -0.081381306
000070 15 6c b7 3d cb bd cd bd c3 a4 e6 bd e3 80 25 bd
       0.08956162 -0.10045966 -0.112618946 -0.04040612
000080 ce 2a 01 3d 41 81 8b 3d c6 d9 b8 3d 9e ca e2 3c
       0.031534962 0.068117626 0.09025912 0.027684506
000090 00 41 5e 3d 38 ac 30 3d e0 81 d5 3d fe 04 dc bd
       0.054261208 0.04313299 0.10425162 -0.1074314
0000a0 da 5c d4 bd 77 f8 d3 bd 57 b0 89 bd 68 dd e5 bd
       -0.103692725 -0.10350125 -0.06723087 -0.112238705
0000b0 a1 2f 9d bd e7 80 41 3c 05 8d ae bd c5 d7 83 3d
       -0.076751 0.011810518 -0.08522991 0.06437639
0000c0 6a bb 77 3d cb 0e 48 3d 2c de af bc 7c 8d 95 bd
       0.060481466 0.048842233 -0.021468244 -0.07302377
0000d0 4a b1 a3 3c 70 16 d2 bd b7 c0 ac bc 26 4b a8 bd
       0.019981999 -0.10258186 -0.021087987 -0.082174584
0000e0 fd e3 19 3c 49 2d 56 3d c7 88 c8 3d 14 a3 e5 bd
       0.009392736 0.05228928 0.09791713 -0.11212745
0000f0 c9 87 8a bc b4 b4 1f bc 8d bc 5b 3d 31 d1 eb 3c
       -0.01691045 -0.009747673 0.053646613 0.028786274
000100 b2 49 bb bd 66 29 7f bc a4 a6 81 bd 5e ca b8 bc
       -0.09144916 -0.015573835 -0.06330612 -0.022557434
000110 34 e5 01 bd 5b c8 73 bc 33 c3 c1 bd b9 2c 32 bc
       -0.031712726 -0.014879311 -0.094610594 -0.0108749205
000120 a0 18 1b 3d cf 4a 37 3d dd 30 60 bd 4a c6 35 3d
       0.03786528 0.044749077 -0.0547341 0.044378556
000130 e5 5d 51 bb ca 37 21 3a 86 22 e8 bc e4 53 39 3d
       -0.0031946835 0.0006149976 -0.028336775 0.04524602
000140 0c 8f 55 bd d3 d5 79 bd cf 78 c0 bd e8 4a c6 bd
       -0.052138373 -0.060994934 -0.093980424 -0.09682256
000150 ed 33 bf bd 78 c6 14 bd 9e b2 a0 3d 19 51 91 3d
       -0.09336076 -0.036322087 0.078465685 0.07095546
000160 57 95 16 bd 36 d5 c2 3d ab ac 79 bd a9 7a f5 bb
       -0.036763515 0.09513323 -0.060955685 -0.007491429
000170 eb 94 c1 3c 44 08 3f 3c d3 4f 9c 3d 62 23 c1 bd
       0.02363058 0.0116596855 0.07632413 -0.09430577
000180 c9 8a 63 bc 8b 3f d8 bd 86 4f 31 bd ff 5b 4d 3d
       -0.013888069 -0.10558995 -0.04328873 0.050136562
000190 71 ab de bd a8 a7 c5 bc 3b ac 1a bc f5 5c b4 bd
       -0.108725436 -0.024127796 -0.009440477 -0.08806793
0001a0 62 32 1b 3d d6 6e 8a bc 21 41 45 3c 96 40 ab 3d
       0.037889846 -0.016898554 0.012039454 0.08361928
0001b0 57 a6 2d 3d 6b 6a a6 bc a7 c0 9a bd 95 03 b8 3d
       0.042394962 -0.020314416 -0.07556277 0.08985058
0001c0 a4 d8 4f 3d 6b 47 3a 3d 9e 21 b7 3d c1 3b 77 bd
       0.050743714 0.045478266 0.08941959 -0.06035972
0001d0 0e 43 cf 3d 48 00 eb 3c 60 ba ab 3d b4 b1 f6 bc
       0.101202115 0.028686658 0.083851576 -0.030114032
0001e0 ad f1 1c bd 4b 27 f7 3b bd 58 59 bb e5 55 0c bd
       -0.038316417 0.007542526 -0.0033164464 -0.034261603
0001f0 56 53 10 39 8f b3 9b bd 1e 8f 95 3d 31 5a a8 bc
       0.00013763955 -0.076026075 0.07302688 -0.02055082
000200 91 ba a7 3d db a7 a5 3c 48 05 8e 3d 34 e2 06 bd
       0.081898816 0.020221641 0.06934601 -0.032930568
000210 5c 04 b4 bd 7d 1b 65 3d 5b f6 b1 bd 40 01 dd bd
       -0.08789894 0.055934418 -0.08689567 -0.10791254
000220 af e4 84 bd 6c 04 a3 bd 05 fb 28 3d 3d 3d 30 bd
       -0.064889304 -0.07959828 0.041255016 -0.04302715
000230 ce c5 47 3d 0d d3 2d bc e4 c1 3d 3d 56 e9 fd 3c
       0.048772626 -0.0106094 0.046327487 0.030995052
000240 40 69 af bd 5f 0c d3 3d bd 9d 1f bb 0f bf b9 3d
       -0.08564997 0.10305094 -0.0024355494 0.09069645
000250 34 e4 e7 bd 74 d2 82 bd 64 4b 15 3d 66 19 d6 bd
       -0.11322823 -0.06387797 0.03644885 -0.10454063
000260 a8 2d e1 bd 80 be 9e bb c4 a6 46 3b 12 8b 04 3c
       -0.10995036 -0.0048444867 0.0030311802 0.008089798
000270 d6 93 ca 3d a0 1e c9 bd 22 64 5e bd 05 1d 5d bc
       0.09891479 -0.098202944 -0.054294713 -0.013495688
000280 ff 87 bb 3c fc ab af 3d a8 e6 8c 3c ae 61 78 3d
       0.022891996 0.08577725 0.01719983 0.06064003
000290 33 21 d7 3b 9c 51 82 bd 87 8a b0 3d 79 53 cd 3c
       0.006565237 -0.06363222 0.08620172 0.025064217
0002a0 14 b2 32 3d 0b d1 4d bd 7d 50 6c 3b 39 0e 74 3d
       0.04362686 -0.050248187 0.0036058717 0.059583876
0002b0 2e d8 dd bc be 86 42 3c fe d0 6f 3d e4 b5 59 bd
       -0.027080622 0.011872945 0.05854892 -0.05315198
0002c0 93 62 91 3d 20 8e 38 3d 0f 78 72 3a f1 0a 4f 3d
       0.0709888 0.045057416 0.00092494575 0.050547544
0002d0 d9 38 dd 3d 1f 69 13 bc a9 d4 c7 bd c0 5a ac bd
       0.108018585 -0.008997231 -0.097573586 -0.08415747
0002e0 75 08 83 bd 06 3d d2 bd 96 89 d8 3d 6c 5e b5 bd
       -0.063980974 -0.102655455 0.105731174 -0.088559
0002f0 0a c7 b6 3b 1e 4e 83 ba 7e 1f 96 3d 9a 3b 2c bb
       0.0055779265 -0.0010017788 0.073302254 -0.0026280642
000300 4a e8 8c 3d 59 c8 85 bc ba f1 8a bd 3e 56 aa 3d
       0.06880243 -0.016330885 -0.06784387 0.08317231
000310 c9 44 e1 3d c8 09 70 3b a5 82 97 bd b8 45 fd bc
       0.10999448 0.0036626924 -0.07397965 -0.030917034
000320 07 b8 d0 bc 1f e3 ac bc 96 3c a5 3d ba 98 de 3d
       -0.025478376 -0.021104394 0.080681965 0.10868974
000330 a0 d2 44 3d 63 04 02 bd fe 84 ae bd 93 f1 8b bd
       0.04805243 -0.031742465 -0.0852146 -0.06833186
000340 1c 45 7a bc 65 5b a9 3d 1a 87 34 bd c7 c0 19 bd
       -0.015275266 0.08269385 -0.044074155 -0.037537362
000350 6f 33 94 bd c7 0b a7 bd a1 fd a2 bc 5d 6d b0 bd
       -0.07236373 -0.08156543 -0.01989633 -0.086146094
000360 5f 65 d6 3d fa 3d f3 3c 62 d1 c3 3d aa 93 01 3d
       0.10468554 0.029692639 0.09561421 0.031634964
000370 2e c0 6d bd fb fe bd bd 01 46 02 3d c2 d7 68 3c
       -0.058044605 -0.09277149 0.031805042 0.014211597
000380 9f c4 ee 3d 03 c5 69 bd b1 f7 38 bc 10 f7 d6 bd
       0.11658596 -0.05707265 -0.011289523 -0.10496342
000390 70 6a 76 3d 85 52 4f 3c 1c de 6e bb 44 c6 39 bd
       0.0601601 0.0126539515 -0.0036448305 -0.045355096
0003a0 a6 7a 44 bd 29 7c 96 3d 93 0b 75 bd 33 c9 bd 3d
       -0.04796853 0.073479004 -0.05982549 0.09266891
0003b0 b4 3b bb 3d 39 05 07 bd da d0 63 bd a3 ca a4 3c
       0.09142247 -0.032963965 -0.0556191 0.020116156
0003c0 b1 b3 6f 3c 4c 29 48 bd 63 5e be bd 6d 63 a4 3c
       0.014630244 -0.04886751 -0.092953466 0.020066941
0003d0 7a 7c c1 bd 3c 4a 4e bc b9 69 58 bd 3d 69 a2 bd
       -0.0944757 -0.012590941 -0.0528352 -0.07930229
0003e0 9b 86 4d bd f3 13 d7 3c 56 9c e3 3d 70 18 e5 bc
       -0.050177198 0.02625463 0.11113803 -0.027965754
0003f0 e9 ea 76 3d 4d 21 bb 3d 6c d6 18 bd d7 9a bf bd
       0.06028262 0.09137211 -0.037313864 -0.09355705

fc3.bias f4 [10]
000000 92 36 b5 bd 1a 70 c2 3a 00 dc cd bd cd 7e 9f bb
       -0.08848299 0.0014834434 -0.10051727 -0.0048674108
000010 c8 34 9f 3d 4b a7 db bb 98 5b 95 bd ed 4a c3 bd
       0.07773739 -0.0067032925 -0.07292861 -0.09535775
000020 d0 2b 19 3c 19 28 cc bd
       0.009348825 -0.099685855

exp_avg f4 [6, 1, 5, 5]
000000 bf f5 a4 bb 38 54 15 bc 5d b8 8c bc 93 29 c9 bc
       -0.005034178 -0.009114318 -0.017177755 -0.024555957
000010 3d 9d c4 bc f2 0f cc bb 6d f8 2e bc 63 97 96 bc
       -0.024000758 -0.0062274868 -0.0106793465 -0.018382734
000020 ed 21 c3 bc c7 79 ac bc 0f 4d be bb 8d 96 37 bc
       -0.023819888 -0.021054162 -0.005807526 -0.011205328
000030 c0 da 8c bc 07 b7 96 bc 6c 89 89 bc f3 68 4b bb
       -0.017194152 -0.018397821 -0.01678916 -0.0031037896
000040 d9 96 ef bb 78 71 5d bc aa 78 7e bc 18 52 59 bc
       -0.0073116836 -0.013515823 -0.015531698 -0.013264202
000050 72 ce 86 39 9a b3 82 bb 26 ae 26 bc 42 65 46 bc
       0.00025712285 -0.0039886953 -0.010173356 -0.012109103
000060 33 e6 12 bc f4 41 ab ba 8c aa b5 b9 60 35 22 b7
       -0.008966017 -0.001306592 -0.00034650078 -9.66838e-06
000070 c9 a7 6b 3a 46 e0 d6 3a b3 f0 3a bb 66 3a 03 bb
       0.00089895405 0.0016393743 -0.0028524816 -0.0020023822
000080 d7 48 e2 ba 6e e3 6f ba 10 8b c0 ba 9b 87 36 bc
       -0.001726414 -0.0009151016 -0.0014689881 -0.011140729
000090 74 3e 38 bc 15 41 23 bc 66 52 0b bc 31 b8 01 bc
       -0.011245359 -0.009964247 -0.008503532 -0.00791745
0000a0 1c ef 9b bc 3f 16 92 bc 8a 4a 74 bc 93 75 64 bc
       -0.019034915 -0.017832873 -0.01491035 -0.0139440475
0000b0 db 8a 48 bc 39 99 7f bc fb d8 6f bc af 01 43 bc
       -0.012240137 -0.015600496 -0.0146391345 -0.011902257
0000c0 ab 27 39 bc c7 39 31 bc 8f 77 b6 b6 28 53 40 36
       -0.0113009615 -0.010816998 -5.437941e-06 2.8658633e-06
0000d0 e9 be 1c b4 2a 98 07 b5 b4 17 f6 b5 e9 e4 a6 b6
       -1.4598085e-07 -5.0512847e-07 -1.8335327e-06 -4.973834e-06
0000e0 e8 3c 0b 36 89 96 57 35 8d 15 46 36 8d 4e 6a b4
       2.0748066e-06 8.03128e-07 2.9516843e-06 -2.1821525e-07
0000f0 c5 c9 e8 b6 17 dd 41 36 76 cb 7d 37 e2 59 80 37
       -6.937628e-06 2.8887932e-06 1.5127347e-05 1.5300644e-05
000100 54 8d 0d 37 db fd bc 36 03 93 c2 37 28 a8 9f 37
       8.43716e-06 5.6323893e-06 2.319506e-05 1.903258e-05
000110 61 39 0d 37 04 86 c9 36 ea d0 d6 37 80 78 b6 37
       8.4176145e-06 6.0058683e-06 2.5608071e-05 2.1752203e-05
000120 22 a0 1d 37 4f ec 76 b6 24 7a b7 33 83 83 9a bb
       9.395213e-06 -3.6794406e-06 8.543819e-08 -0.0047153844
000130 59 43 b9 ba d0 34 bc 3a c6 ed 21 3b fd 7a 3f 3b
       -0.0014134451 0.0014359001 0.0024708374 0.0029217594
000140 a4 74 eb bb db ef 24 bb 61 98 8f 39 2c 0e 3e 39
       -0.0071855355 -0.002516738 0.00027388617 0.00018125091
000150 2e d8 15 3a c8 ee 3a bc f0 56 e1 bb a4 6b 81 bb
       0.0005716112 -0.011409469 -0.006876819 -0.0039495993
000160 0f 17 69 bb d0 69 1f bb e3 88 4a bc 89 88 0b bc
       -0.0035566723 -0.0024324544 -0.012361738 -0.008516439
000170 31 99 d7 bb ce f6 b8 bb d8 cf 92 bb b2 a8 5f bc
       -0.006579541 -0.005644656 -0.0044803433 -0.01365106
000180 30 24 04 bc 77 0e cf bb d0 cb c2 bb b5 9e e3 bb
       -0.008065268 -0.006318863 -0.0059447065 -0.0069464096
000190 9c 2b 2b bd 74 eb 28 bd 75 ce d9 bc fc 7c 0e bc
       -0.041789636 -0.04124017 -0.026587704 -0.008696791
0001a0 39 98 55 bb 61 18 32 bd 1b 9c 26 bd 7b 52 d0 bc
       -0.0032591952 -0.04348028 -0.040676218 -0.025429955
0001b0 d0 34 42 bc 0d fc df bb ec 94 1d bd b9 28 15 bd
       -0.011853412 -0.0068354667 -0.0384721 -0.03641579
0001c0 90 17 e0 bc 13 68 a0 bc 46 a5 65 bc e4 f5 f7 bc
       -0.027354985 -0.019580876 -0.014016455 -0.030268617
0001d0 22 be e0 bc f5 f6 c6 bc b1 45 ad bc 04 2e 8f bc
       -0.027434412 -0.02428768 -0.021151396 -0.017477997
0001e0 48 7f b7 bc 59 8f 99 bc 05 b9 8c bc 55 77 8c bc
       -0.02239956 -0.018745111 -0.017178068 -0.017146746
0001f0 b2 17 7a bc 3d e2 b5 bb a2 73 9a bb 98 1e 92 bb
       -0.015264438 -0.0055506513 -0.0047134915 -0.0044592135
000200 6b 69 b7 bb 96 b7 e4 bb c4 cd 38 bc 31 fe 44 bc
       -0.0055972836 -0.006979893 -0.011279527 -0.012023495
000210 90 3c 53 bc ca fe 54 bc a0 27 50 bc b4 33 46 bc
       -0.012892857 -0.0130002 -0.01270476 -0.012097288
000220 dd 4a 4e bc 39 54 4f bc b6 50 42 bc cf 20 32 bc
       -0.012591091 -0.012654358 -0.011860063 -0.01087208
000230 a0 a0 bb bb 6c 0b c7 bb 68 a9 cd bb 83 c4 e4 bb
       -0.005725935 -0.0060743596 -0.0062762983 -0.006981434
000240 f9 59 f6 bb 2f c7 e6 b9 98 03 92 ba f0 0b f3 ba
       -0.00751805 -0.00044017422 -0.0011139987 -0.0018542986
000250 b2 2d 40 bb 60 ed 7c bb
       -0.0029324112 -0.0038593635

exp_avg_sq f4 [6, 1, 5, 5]
000000 c2 77 2b 36 e9 c0 ef 36 9b 47 cd 37 c5 f5 59 38
       2.5550694e-06 7.1452127e-06 2.4471248e-05 5.1965722e-05
000010 33 ef 54 38 fe db 69 36 dc 93 27 37 11 54 ee 37
       5.076751e-05 3.4847758e-06 9.988402e-06 2.8410957e-05
000020 fe d9 4a 38 96 98 1d 38 a5 db 47 36 fc 36 27 37
       4.8363574e-05 3.7573824e-05 2.978116e-06 9.966778e-06
000030 65 ee c5 37 00 61 e0 37 60 db c1 37 d4 c4 8a 35
       2.3595241e-05 2.674805e-05 2.3109547e-05 1.0339086e-06
000040 97 ec 80 36 f8 34 63 37 2d c1 9a 37 85 92 79 37
       3.84224e-06 1.3542587e-05 1.8448185e-05 1.4875671e-05
000050 f5 27 0d 35 2e 0d b9 35 77 2f 05 37 18 21 42 37
       5.258474e-07 1.378741e-06 7.938469e-06 1.1571006e-05
000060 9d 26 dd 36 36 20 c2 33 27 59 3a 32 41 41 56 32
       6.5908084e-06 9.039688e-08 1.0846896e-08 1.24712765e-08
000070 cb aa ce 33 82 ab b5 34 1c 54 00 35 fc 9a a0 34
       9.6236896e-08 3.3838666e-07 4.780611e-07 2.9915088e-07
000080 76 a3 ac 34 1f ef cd 34 de 86 26 35 0a ed 20 37
       3.215643e-07 3.835821e-07 6.2036077e-07 9.591933e-06
000090 96 b8 31 37 0f 9b 19 37 56 30 01 37 f4 08 e3 36
       1.0592999e-05 9.155613e-06 7.700253e-06 6.7661695e-06
0000a0 3a 3b f9 37 49 90 df 37 32 a5 a6 37 dc f6 a0 37
       2.9710693e-05 2.665086e-05 1.9865667e-05 1.918844e-05
0000b0 0c 1f 76 37 89 c1 a5 37 54 77 95 37 7b cb 50 37
       1.4669971e-05 1.9759655e-05 1.781775e-05 1.2445143e-05
0000c0 e3 97 4c 37 6e cc 35 37 b0 b5 47 2e 94 05 11 2f
       1.2194711e-05 1.0836038e-05 4.5408732e-11 1.3189655e-10
0000d0 02 91 c7 2c 65 54 63 2c a0 bc 82 2e b9 a7 f3 2d
       5.6720193e-12 3.2305489e-12 5.945222e-11 2.7700385e-11
0000e0 a7 57 ce 2e 20 6b 91 2d d1 51 0e 2e 5e c7 87 2e
       9.3833656e-11 1.6532165e-11 3.235973e-11 6.174504e-11
0000f0 37 02 7b 2e 91 0c 1f 30 21 b7 9b 30 13 2e 87 30
       5.707276e-11 5.786172e-10 1.1329783e-09 9.835638e-10
000100 0c 7e b2 2f e3 80 3d 30 7c 0d eb 30 14 be 96 30
       3.2467573e-10 6.894096e-10 1.7102333e-09 1.096796e-09
000110 b1 59 06 30 5a c1 4c 2e 22 72 d5 30 8c 86 53 30
       4.8876375e-10 4.655596e-11 1.5530228e-09 7.6952555e-10
000120 bf 74 46 2f 99 7c 11 2e 55 46 1d 2c bc 2d 44 36
       1.8049472e-10 3.3079848e-11 2.2350084e-12 2.9232897e-06
000130 66 1c 02 35 35 ae ed 34 b5 bb 67 35 fe 88 81 35
       4.84701e-07 4.4271442e-07 8.6327356e-07 9.651119e-07
000140 72 7f cc 36 c2 d7 85 35 a0 cd a4 34 3b ba 5d 34
       6.0945104e-06 9.972066e-07 3.0696992e-07 2.0649979e-07
000150 c8 51 82 34 f0 44 68 37 50 59 a6 36 f8 33 ec 35
       2.427389e-07 1.3844328e-05 4.957583e-06 1.7598495e-06
000160 33 bc c4 35 09 5a 77 35 45 a3 7b 37 a4 75 e4 36
       1.4657911e-06 9.214569e-07 1.499878e-05 6.8086247e-06
000170 fb a7 89 36 f1 fa 4d 36 c7 be 0a 36 bd ba 8f 37
       4.1024737e-06 3.0693448e-06 2.067465e-06 1.7133885e-05
000180 40 49 be 36 93 f7 80 36 16 71 60 36 84 a6 a8 36
       5.6709687e-06 3.8435187e-06 3.3444426e-06 5.026175e-06
000190 f3 66 2d 39 86 2c 24 39 43 41 81 38 0c b7 c1 36
       0.00016536917 0.00015656845 6.163355e-05 5.7731577e-06
0001a0 36 fa 3d 35 b4 4f 38 39 8b 74 1a 39 14 90 63 38
       7.077209e-07 0.00017577299 0.0001473 5.42552e-05
0001b0 70 66 29 37 17 7b 37 36 1b 10 12 39 e3 4d f9 38
       1.0097036e-05 2.7340773e-06 0.00013929645 0.00011887753
0001c0 e1 ef 84 38 91 05 f5 37 5c 58 6a 37 bc 7d b8 38
       6.3389314e-05 2.9208868e-05 1.396806e-05 8.7972236e-05
0001d0 43 7a 90 38 37 4e 5e 38 fe 68 20 38 06 b3 d0 37
       6.889228e-05 5.3001768e-05 3.8244754e-05 2.4878897e-05
0001e0 bc 7d 57 38 32 af 13 38 76 b2 f5 37 36 03 e8 37
       5.1377094e-05 3.5210694e-05 2.9289378e-05 2.765805e-05
0001f0 e8 8e ae 37 ba 00 fb 35 7d b0 c7 35 14 2d b1 35
       2.0808962e-05 1.8701169e-06 1.487802e-06 1.3200647e-06
000200 f2 9e 05 36 fc c3 4e 36 6d 33 0e 37 25 4a 23 37
       1.9911063e-06 3.081047e-06 8.475833e-06 9.73282e-06
000210 64 38 3c 37 d1 82 40 37 91 f2 33 37 a0 4f 24 37
       1.1218803e-05 1.147455e-05 1.0725708e-05 9.793701e-06
000220 7c d3 32 37 9f 86 34 37 36 0e 20 37 9e 69 06 37
       1.0658867e-05 1.076018e-05 9.540052e-06 8.011613e-06
000230 bc 32 19 36 2b 04 29 36 bb 48 2d 36 69 be 56 36
       2.2828308e-06 2.5185388e-06 2.5821344e-06 3.1999318e-06
000240 e2 25 7b 36 10 d8 47 33 f0 81 e1 33 d8 55 5c 34
       3.7423965e-06 4.6529806e-08 1.05010145e-07 2.0520326e-07
000250 cb 6f 0c 35 28 0b 7b 35
       5.2316744e-07 9.352102e-07

exp_avg f4 [6]
000000 ce cf 02 bc 3c 0b 8e bc 39 66 da 37 8f c2 ed bc
       -0.007984115 -0.017339341 2.6035226e-05 -0.029023437
000010 d2 ea 44 bd 01 63 73 bc
       -0.048075505 -0.014855147

exp_avg_sq f4 [6]
000000 40 e1 e3 36 9b 74 e0 37 f9 76 0f 31 86 03 a2 38
       6.7913497e-06 2.675718e-05 2.0876867e-09 7.725418e-05
000010 90 1f 64 39 c5 e8 70 37
       0.00021755532 1.4359311e-05
